turtlebot3_dqn/nodes/saved_model/model.pth (torch_old, 887473 bytes, 26 tensors)

feature_layer.0.weight f4 [128, 26]
0	0xbe39b316	-0.18134722
1	0xbcaab261	-0.02083701
2	0xbd627a3c	-0.055292353
3	0xbd7e63b8	-0.062106818
4	0x3e076102	0.132206
5	0x3e074a06	0.13211831
6	0x3d9094b6	0.07059614
7	0xbc83b29e	-0.016076382
8	0x3de1686c	0.11006245
9	0xbde1960c	-0.11014947
10	0xbdbb2e83	-0.09139731
11	0x3ca25746	0.019817006
12	0xbe2ebfc3	-0.17065339
13	0x3cf78f39	0.030219661
14	0x3d993e9c	0.07482645
15	0x3e32f55e	0.17476413
16	0x3e1581c0	0.14600277
17	0xbdb07213	-0.08615508
18	0x3e036ef4	0.12835294
19	0x3e09d75f	0.13461064
20	0x3e104ef6	0.14092621
21	0xbe02186c	-0.12704629
22	0xbd686eac	-0.05674617
23	0xbdfa1705	-0.12211422
24	0x3e42f3a4	0.19038254
25	0x3e161786	0.14657411
26	0x3e1eb887	0.15500079
27	0xbcd3e5c8	-0.025866404
28	0xbe0ba79c	-0.13638157
29	0xbd944ed2	-0.07241596
30	0xbd456240	-0.0481894
31	0x3d3b5f50	0.045745194
32	0x3c641a30	0.013922259
33	0x3e47a11b	0.1949505
34	0xbd446a70	-0.04795307
35	0x3e366591	0.17812182
36	0x3e03cf5f	0.12872075
37	0x3d6a700c	0.057235762
38	0x3caecd48	0.02133812
39	0xbd5070cc	-0.05088882
40	0xbe2cdf1d	-0.16881986
41	0xbd359908	-0.044335395
42	0x3db8330a	0.0899411
43	0x3e235be5	0.15953024
44	0xbe4672c2	-0.19379714
45	0xbe3ebb6d	-0.18626185
46	0xbca20560	-0.019777954
47	0xbde51f5b	-0.11187621
48	0xbd2b9574	-0.041890576
49	0x3ba9efa0	0.005186036
50	0x3e486815	0.19570954
51	0xbe0c75ae	-0.13716766
52	0xbdaa389a	-0.08311577
53	0x3e15eb7b	0.1464061
54	0x3dd71dda	0.105037406
55	0x3e019aef	0.12656759
56	0xbe3c2d92	-0.18376759
57	0x3d43f2b3	0.047838878
58	0x3e3c55d3	0.18392114
59	0x3b9e20aa	0.004825671
60	0x3d841fbf	0.064513676
61	0xbe2dee46	-0.16985425
62	0xbdace538	-0.084421575
63	0xbe105c2a	-0.14097658
64	0x3da41c97	0.080132656
65	0x3e23c68d	0.1599371
66	0x3d84ce5d	0.06484673
67	0xbe348ae4	-0.17631108
68	0xbd90720c	-0.07053003
69	0x3cb9f4f6	0.022699814
70	0xbd4607fe	-0.048347466
71	0xbdd6997a	-0.10478492
72	0xbe114dac	-0.14189786
73	0xbe446f04	-0.19182974
74	0xbd93f1df	-0.072238676
75	0x3e30001d	0.17187543
76	0xbe141f18	-0.14464986
77	0xbde17e21	-0.11010385
78	0xbd8ee406	-0.06977086
79	0xbe1173d1	-0.14204337
80	0x3d458896	0.04822596
81	0xbe601e18	-0.2188648
82	0x3c90e2d7	0.01768629
83	0x3dc55663	0.096356176
84	0x3dd4d929	0.103929825
85	0xbe658b67	-0.22416459
86	0x3c6d18d5	0.014471252
87	0x3e10b4fb	0.14131539
88	0x3dd10fe8	0.10208112
89	0x3dce4261	0.100712545
90	0xbe6420ce	-0.22278139
91	0xbe555ac5	-0.20835407
92	0x3d9e46d7	0.077283554
93	0x3e06b1c5	0.13153751
94	0x3e1387e3	0.14407305
95	0x3d8e9f2c	0.069639534
96	0x3dd45118	0.1036703
97	0x3dd67f54	0.10473505
98	0x3d0dfd01	0.03466511
99	0x3d334274	0.043764547
100	0xbd4c44ff	-0.049870487
101	0xbe2ff1a2	-0.1718202
102	0x3d8cbc44	0.06871846
103	0xbd9adaf2	-0.07561292
104	0x3dcec5b2	0.10096301
105	0x3dbd81ae	0.0925325
106	0xbe19a39c	-0.15003818
107	0xbe463ef4	-0.19359952
108	0xbe29f9e4	-0.16599232
109	0x3d3a1198	0.045426935
110	0x3e1f8a81	0.15580179
111	0xbd2b81e4	-0.04187192
112	0xbd9deba0	-0.077109575
113	0x3de42f7a	0.11141868
114	0xbe242587	-0.1602994
115	0xbda4665a	-0.080273345
116	0xbd733224	-0.05937399
117	0x3d6bd364	0.057574645
118	0x3d898142	0.06714107
119	0xbe373890	-0.1789267
120	0xbe030f4c	-0.12798804
121	0x3df3c616	0.11903016
122	0x3e42591d	0.18979307
123	0x3dc0f052	0.094208375
124	0x3e29a591	0.16567065
125	0xbdd401f7	-0.10351937
126	0xbdffc22b	-0.124882065
127	0x3e3e4eff	0.18584822
128	0x3e081cdb	0.13292257
129	0x3e121d5d	0.14269014
130	0xbd9e8289	-0.07739741
131	0x3d9d91fe	0.076938614
132	0xbe48371b	-0.19552271
133	0xbdba96a2	-0.09110762
134	0x3d4b1efc	0.049590096
135	0x3e150e25	0.14556177
136	0xbdabba14	-0.08385101
137	0x3d958522	0.07300784
138	0x3e403531	0.18770291
139	0xbe0db592	-0.13838795
140	0x3d71c454	0.059025124
141	0x3de38986	0.11110215
142	0xbe022a70	-0.12711501
143	0x3dfc885e	0.123306975
144	0xbe3e5e2e	-0.18590614
145	0xbe3892e7	-0.18024789
146	0x3ce6e070	0.028183192
147	0xbdc7e875	-0.097611345
148	0xbe27d70e	-0.1639063
149	0xbd106c08	-0.035259277
150	0xbd994bbc	-0.07485148
151	0xbd8d33e2	-0.068946615
152	0x3e46263d	0.19350524
153	0xbd9a8ed9	-0.07546777
154	0xbddf5850	-0.10905516
155	0x3d9e561a	0.07731266
156	0xbd7482fa	-0.05969522
157	0xbe20aeac	-0.15691632
158	0xbd425927	-0.047448304
159	0x3c4417d0	0.011968568
160	0xbd8c1785	-0.068404235
161	0x3e2e8ea7	0.17046605
162	0x3d70f86a	0.058830656
163	0xbdd905c0	-0.105968
164	0xbb83e8f1	-0.0040255715
165	0x3da8aa44	0.082356006
166	0xbda6aeee	-0.08138834
167	0xbe523051	-0.20526244
168	0x3d24b189	0.040208373
169	0xbdaa6651	-0.083202966
170	0x3e097d4b	0.13426702
171	0x3cf8c046	0.03036512
172	0xbd837d4a	-0.06420381
173	0x3e134ff2	0.14385965
174	0x3d9c9127	0.07644873
175	0x3df2ba31	0.118519194
176	0x3d466861	0.048439387
177	0x3d1b77e7	0.037956145
178	0x3d179d25	0.0370151
179	0xbdf2f151	-0.11862434
180	0x3d9a7c47	0.07543235
181	0xbe364934	-0.17801362
182	0xbe5116ef	-0.20418905
183	0xbe3287f0	-0.17434669
184	0x3ded7ced	0.11596093
185	0x3dff5ef6	0.12469284
186	0xbdcff82c	-0.10154757
187	0x3de46f4e	0.11154042
188	0x3e14ff93	0.14550619
189	0x3e1fddfc	0.15612024
190	0xbe42c964	-0.19022137
191	0xbdb9bd7c	-0.090693444
192	0x3ca1ae8d	0.019736553
193	0x3daf3e79	0.085568376
194	0x3dc6bde6	0.09704189
195	0x3d30cd27	0.0431644
196	0xbe5ae056	-0.2137464
197	0xbc0fd481	-0.008778692
198	0xbe3f16c5	-0.1866103
199	0x3cd06708	0.025439754
200	0xbce8cb63	-0.028417295
201	0x3dae9bd4	0.085258156
202	0xbd948e42	-0.07253696
203	0xbacc014d	-0.0015564353
204	0x3e06eee9	0.13177074
205	0x3da97ba8	0.08275539
206	0xbddb58f9	-0.107103296
207	0xbe2d0069	-0.16894688
208	0x3dbb46ca	0.09144361
209	0xbe15db98	-0.1463455
210	0xbdbaac35	-0.09114877
211	0x3e322f73	0.17400913
212	0xbe281700	-0.16415024
213	0x3c1fa620	0.009744197
214	0xbe02469e	-0.12722251
215	0xbcb77848	-0.022396222
216	0x3e2168ab	0.15762584
217	0xbe2a144b	-0.16609304
218	0xbd5b88b0	-0.053597152
219	0x3d5ae210	0.053438246
220	0xbe020a57	-0.12699257
221	0x3e0a8059	0.13525523
222	0xbde44cbe	-0.1114745
223	0x3de3e86a	0.11128314
224	0xbe2806a0	-0.16408777
225	0x3e0f4cf7	0.13994204
226	0x3dfff2d6	0.12497489
227	0x3ca88c10	0.0205746
228	0xbd2ae278	-0.041719884
229	0x3c865778	0.01639913
230	0xbe41971b	-0.18905298
231	0xbdb1e38a	-0.08685978
232	0xbe23bade	-0.15989253
233	0xbdd70be5	-0.105003156
234	0xbe39e61b	-0.18154185
235	0x3e318acb	0.17338102
236	0x3d453d30	0.048154056
237	0xbd85a27c	-0.06525132
238	0xbe10e9e6	-0.14151725
239	0xbd6b7610	-0.05748564
240	0xbb18e6c0	-0.0023330897
241	0xbd993cda	-0.0748231
242	0x3da8786e	0.08226095
243	0xbde9de33	-0.11419334
244	0xbcd796b8	-0.026316985
245	0x3e1209c5	0.1426154
246	0xbdbec1d0	-0.093143106
247	0x3c2827d0	0.010263398
248	0xbd8d099c	-0.068865985
249	0x3e3d5531	0.18489529
250	0xbdf32566	-0.118723676
251	0xbd9173fc	-0.071022004
252	0x3e3c9611	0.18416621
253	0x3e3ea07d	0.18615909
254	0x3d04d0d8	0.03242573
255	0x3cfbaff0	0.030723542

feature_layer.0.bias f4 [128]
0	0xbe26bff0	-0.16284156
1	0xbcceecf8	-0.02525948
2	0x3ddfb09c	0.109223574
3	0xbb994fdf	-0.004678711
4	0xbe09939a	-0.13435212
5	0x3e1ccf33	0.15313415
6	0x3e3222f0	0.1739614
7	0xbb9c8dfc	-0.004777668
8	0xbdf713c1	-0.12064315
9	0xbd3ed78c	-0.04659228
10	0xbd07d174	-0.033158734
11	0xbe13565e	-0.14388415
12	0x3ab7d980	0.0014026612
13	0xbe20f28f	-0.15717529
14	0xbd707505	-0.05870535
15	0x3da86193	0.08221736
16	0x3e00d487	0.12581073
17	0x3c3c3360	0.011486858
18	0x3e25e293	0.16199712
19	0xbc74baac	-0.014937084
20	0x3ddc69be	0.10762356
21	0x3dd35961	0.10319782
22	0xbd896090	-0.06707871
23	0x3c946fd9	0.01811974
24	0xbdd04621	-0.10169626
25	0xbdcf07cc	-0.10108909
26	0xbe10c393	-0.14137106
27	0xbde89151	-0.11355842
28	0x3e41248f	0.18861602
29	0xbdfc8e54	-0.123318344
30	0x3de7298e	0.11287223
31	0x3e1aaf50	0.15105939
32	0xbe12506a	-0.14288488
33	0xbe0dd41a	-0.13850442
34	0x3caf446e	0.021394935
35	0xbdd63621	-0.10459543
36	0xbe042e13	-0.12908201
37	0xbe28fec0	-0.1650343
38	0x3e486db9	0.19573106
39	0x3e120cc7	0.14262687
40	0xbdc8341f	-0.09775566
41	0x3e2c9ce9	0.16856731
42	0x3d3ee520	0.04660523
43	0x3d063f7a	0.03277538
44	0x3cab5e18	0.02091889
45	0x3d8ba422	0.06818415
46	0x3c2d8d85	0.010592823
47	0xbd1343b8	-0.035953254
48	0xbe2e50fc	-0.1702308
49	0x3dcf3d86	0.101191565
50	0x3e2e9b13	0.17051344
51	0x3dcfff5a	0.10156126
52	0x3cba29ba	0.022724975
53	0x3d44dba7	0.04806104
54	0xbda4e948	-0.08052307
55	0x3dff3a66	0.124623105
56	0xbe12114e	-0.14264414
57	0xbe2ddacf	-0.16978
58	0x3b632340	0.0034658462
59	0x3d70b00e	0.05876165
60	0x3e12907f	0.14312933
61	0x3d86783e	0.06565903
62	0x3e2909f7	0.16507708
63	0xbe1a982d	-0.15097113
64	0xbe598244	-0.21241099
65	0xbe163e1e	-0.14672133
66	0xbded8f42	-0.1159959
67	0xbe25b6df	-0.16183041
68	0x3d87591b	0.066087924
69	0x3e3d9283	0.18512921
70	0x3e24af35	0.16082461
71	0x3ddd3ce1	0.10802627
72	0xbd346363	-0.044040095
73	0x3d6a7d94	0.057248667
74	0xbd9ebe57	-0.07751148
75	0xbcf2b6d0	-0.029628187
76	0xbdb5b005	-0.08871464
77	0x3e1f6359	0.15565242
78	0x3e51b41a	0.2047886
79	0x3d7fa9df	0.06241786
80	0xbe3a8c48	-0.18217576
81	0xbdc1460a	-0.09437187
82	0xbd936ed7	-0.071988754
83	0xbe2034e8	-0.15645182
84	0x3d9515eb	0.07279571
85	0xbe35b697	-0.17745434
86	0x3e155701	0.1458397
87	0x3e229212	0.15876034
88	0xbe42ea88	-0.19034779
89	0x3d8d88a6	0.06910829
90	0xbcc4e4ee	-0.024034943
91	0xbe3a6bfc	-0.18205255
92	0xbc2adef0	-0.010429129
93	0x3c0a4a7f	0.008440613
94	0x3de03d46	0.10949187
95	0xbdea2fe1	-0.114349134
96	0xbdfc9b61	-0.12334324
97	0xbcbe1f97	-0.023208423
98	0xbe375978	-0.17905223
99	0x3e0e6084	0.13904005
100	0x3d60b8ac	0.054863617
101	0xbdd8a7f8	-0.105789125
102	0x3cb19950	0.02167955
103	0x3c154d40	0.009112656
104	0x3e016252	0.12635162
105	0xbaccd015	-0.0015625978
106	0x3c088410	0.008332267
107	0xbdf11980	-0.11772442
108	0xbd87b356	-0.066260025
109	0xbd9deb4b	-0.07710894
110	0x3e37b5b9	0.17940415
111	0x3e133a4b	0.14377706
112	0xbe241116	-0.16022143
113	0xbdef16c4	-0.11674264
114	0x3e20671d	0.15664335
115	0xbda2d6a0	-0.07951093
116	0x3d43c834	0.04779835
117	0xbcf2c6be	-0.029635783
118	0x3e0dbce6	0.1384159
119	0xbe3c46c8	-0.18386376
120	0xbca58565	-0.020205209
121	0xbd89faa6	-0.067372605
122	0x3d8625d2	0.065501824
123	0x3d72c994	0.05927427
124	0xbe07f44d	-0.13276787
125	0xbd62ef3c	-0.055403933
126	0x3e412ecb	0.18865506
127	0x3d847c37	0.064690046

advantage_hidden_layer.weight_mu f4 [128, 128]
0	0xbcf431f2	-0.029808972
1	0x3d35e6aa	0.04440943
2	0x3ce2292e	0.027607527
3	0x3d45b487	0.048267867
4	0x3c5f04e0	0.013612002
5	0x3cbb92f4	0.022897221
6	0x3d2aeb16	0.0417281
7	0xbdc0ccce	-0.094140634
8	0xba18e300	-0.00058321655
9	0x3d0bf152	0.034165688
10	0x3c7ee830	0.0155582875
11	0x3d8d5e48	0.06902748
12	0x3d2f71ba	0.042833067
13	0xbd96c259	-0.073612876
14	0xbd248772	-0.040168233
15	0xbd26ae75	-0.04069372
16	0xbcec9d92	-0.02888373
17	0x3bb1f520	0.0054308325
18	0x3c5c6180	0.01345098
19	0x3d207556	0.0391744
20	0xbd83e129	-0.0643943
21	0xbbf38667	-0.0074317935
22	0x3b34eb80	0.002760619
23	0x3d67eef0	0.056624353
24	0xbd8bd312	-0.06827368
25	0xbc85575c	-0.016277008
26	0xbc6549ef	-0.013994678
27	0xbd053064	-0.032516852
28	0xbd82af7c	-0.06381127
29	0x3cef391c	0.029202037
30	0xbdcec17c	-0.10095498
31	0xbda05e87	-0.0783053
32	0x3d15eff0	0.036605775
33	0xbce927fb	-0.028461447
34	0x3d88c78b	0.06678685
35	0x3d6a03be	0.057132475
36	0xbd79d251	-0.06099159
37	0x3d9a7ef4	0.07543746
38	0xbd89629b	-0.067082606
39	0xbd47cc82	-0.04877902
40	0xbd54237e	-0.05179166
41	0xbdbd7aa1	-0.09251905
42	0x3d37ca4a	0.044870652
43	0x3d392d0e	0.045208983
44	0x3da7c50d	0.08191881
45	0x3d4e82ee	0.050417833
46	0xbda525a9	-0.08063824
47	0xbc486e18	-0.01223328
48	0xbd0effe6	-0.034912013
49	0xbd35dc1f	-0.044399377
50	0xbcb3ab14	-0.021932162
51	0xbc598ff8	-0.013278954
52	0x3c00be70	0.007857904
53	0xbd751fe6	-0.059844874
54	0xbd8b92c9	-0.068151064
55	0x3c15a271	0.009132967
56	0xbcb55b9b	-0.022138407
57	0xbd70b537	-0.05876657
58	0x3d0ec10c	0.034852073
59	0xbdc97216	-0.09836213
60	0x3cf86448	0.030321255
61	0x3d68940c	0.056781814
62	0x3d37b52e	0.04485052
63	0x3cd54920	0.026035845
64	0x3d759611	0.059957568
65	0xbd161d4f	-0.036649045
66	0xbd891792	-0.06693949
67	0x3d73c04d	0.059509564
68	0xbd158a7a	-0.036509015
69	0x3d4109b6	0.0471284
70	0x3daa7ef1	0.083249934
71	0xbde68cde	-0.11257337
72	0x3cdd1331	0.02698669
73	0xbd3b860e	-0.04578214
74	0x3cbf27c4	0.023334391
75	0x3ce59f23	0.028029984
76	0x3cdba068	0.026809886
77	0xbdc9e9bb	-0.09859034
78	0x3b9c09df	0.004761919
79	0xbc9a3210	-0.0188227
80	0xbd9eb004	-0.07748416
81	0x3d2bb82e	0.041923694
82	0xbdb90529	-0.09034187
83	0x39caf12e	0.00038708135
84	0xbd856b7e	-0.06514643
85	0xbd7d5c3c	-0.06185554
86	0xbd8ee944	-0.06978086
87	0x3d86278a	0.0655051
88	0xbd850b38	-0.064962804
89	0x3d845931	0.064623244
90	0xbcda1771	-0.026622506
91	0x3d69d242	0.057085283
92	0xbb168a60	-0.0022970662
93	0xbd3af506	-0.04564383
94	0x3d556d5e	0.052106254
95	0xbe078f36	-0.13238224
96	0xbd940219	-0.072269626
97	0xbdbc8a73	-0.092060946
98	0xbda38d10	-0.0798589
99	0x3d0aa7af	0.03385132
100	0xbdef2d0c	-0.11678514
101	0xbdc26782	-0.09492399
102	0x3cead298	0.028664872
103	0xbc5a41d8	-0.013321362
104	0x3d10958b	0.035298865
105	0x3d970052	0.07373108
106	0x3d82967f	0.06376361
107	0x3d82c0b7	0.06384414
108	0xbd0730c1	-0.03300548
109	0xbc5a58a8	-0.013326801
110	0x3c5677c0	0.013090074
111	0xbcffeca6	-0.031240772
112	0x3d3d11a8	0.046159416
113	0xbd8f186b	-0.06987079
114	0xbdac5c21	-0.0841601
115	0x3d4ab4b4	0.04948874
116	0xbdaa5f9b	-0.083190165
117	0x3d886fa0	0.06661916
118	0xbdba32c1	-0.09091712
119	0xbb64a14b	-0.0034886177
120	0xbdbd1f25	-0.09234456
121	0x3d6b3196	0.057420336
122	0xbbef0890	-0.007294722
123	0x3c20fee8	0.009826399
124	0xbda7daf8	-0.08196062
125	0x3d9f1bdf	0.07768988
126	0x3bc56ab0	0.006024681
127	0xbdbc9a3b	-0.092091046
128	0xbc993f48	-0.018706933
129	0xbd4c0a90	-0.04981476
130	0xbd337892	-0.043816157
131	0x3c014340	0.007889569
132	0x3d8ea8b1	0.06965769
133	0xbdb185c2	-0.086680904
134	0xbd6cb914	-0.05779369
135	0x3b8b3013	0.0042476743
136	0x3c782f20	0.015147954
137	0xbd241318	-0.04005727
138	0x3c94e800	0.018177032
139	0xbd46528f	-0.048418578
140	0x3b8be450	0.0042691603
141	0x3c95eba8	0.018300846
142	0x3c90006d	0.017578328
143	0xbdbb4dcc	-0.09145698
144	0x3d97ecd9	0.07418222
145	0xbb865580	-0.004099548
146	0x3c6f2e28	0.014598407
147	0x3d9812c4	0.07425454
148	0x3cca85d0	0.02472201
149	0x3d0e9b7b	0.034816246
150	0x3bdd9080	0.0067616105
151	0x3d6397c7	0.055564668
152	0x3d977f9d	0.07397387
153	0xbd8e2bcf	-0.069419496
154	0xbc33b5a8	-0.010968603
155	0x3cf34088	0.029693857
156	0xbd57e130	-0.05270499
157	0xbd906756	-0.0705096
158	0xbc434e7e	-0.011920569
159	0x3c7b5eea	0.0153424535
160	0xbb923aad	-0.004462561
161	0xbb263807	-0.0025362985
162	0xbd957244	-0.07297185
163	0xbc318160	-0.010834068
164	0x3c333b38	0.010939412
165	0xbdae92f0	-0.0852412
166	0xbda04b68	-0.078268826
167	0xbd67eb5f	-0.05662095
168	0x3da6c7ff	0.08143615
169	0xbda201fd	-0.079105355
170	0xbd54fc92	-0.051998682
171	0xbd88d95b	-0.06682082
172	0xbc95ddf4	-0.018294312
173	0x3d8b32cb	0.06796797
174	0x3d9f5ade	0.077810034
175	0xbd629b78	-0.055324048
176	0xbdafcb36	-0.08583681
177	0xbd2ae34b	-0.04172067
178	0x3da0355f	0.0782268
179	0xbd3bfec8	-0.045897275
180	0x3d07829b	0.03308354
181	0xbc72e08c	-0.014824044
182	0x3d8ef0a1	0.0697949
183	0xbdb2e5cc	-0.087352365
184	0xbc61702a	-0.013759652
185	0xbb48bc0e	-0.0030629667
186	0xbd477321	-0.04869378
187	0x3d690eae	0.056898765
188	0x3daee285	0.08539299
189	0xbd329ea5	-0.043608326
190	0x3d05b4b2	0.032643028
191	0x3d82a536	0.06379168
192	0x3cd8444e	0.026399758
193	0xbd9b7c73	-0.07592096
194	0xbd9d1640	-0.076702595
195	0xbd651729	-0.05593029
196	0xbd710be8	-0.058849245
197	0xbd0ce31c	-0.034396276
198	0x3c54b660	0.012982935
199	0x3c343b46	0.01100046
200	0xbb479539	-0.0030453934
201	0x3ceb3df8	0.028716072
202	0xbc811bb0	-0.015760273
203	0xbdbc5597	-0.091960125
204	0xbc268570	-0.01016365
205	0xbd41189b	-0.047142606
206	0xbd584439	-0.052799437
207	0x3d31dfdd	0.043426383
208	0xbd897925	-0.067125596
209	0xbcd74f42	-0.02628291
210	0x3d3584d5	0.04431613
211	0x3d31ef12	0.043440886
212	0x39991787	0.00029199963
213	0xbd53dd18	-0.051724523
214	0xbdf8e3be	-0.121528134
215	0xbdc131ba	-0.09433313
216	0x3c3fbad8	0.011702262
217	0xbcaee16c	-0.021347724
218	0xbdff0f5c	-0.124541014
219	0xbd60f164	-0.054917708
220	0x3cafc8b8	0.021458015
221	0x3c019c62	0.00791082
222	0xbd9cb6d9	-0.07652063
223	0x3badc745	0.005303296
224	0xbd75f5b6	-0.06004878
225	0x3cc2414b	0.023712775
226	0xbcb3473c	-0.021884553
227	0x3da282b3	0.07935085
228	0xbd6fae72	-0.058515973
229	0xbd7fb6f7	-0.06243035
230	0x3be4e760	0.00698559
231	0xbc84a400	-0.016191483
232	0xbcde54a4	-0.02713997
233	0xbd7d8a9a	-0.06189976
234	0xbdb4a1a1	-0.08819891
235	0x3d80e3c7	0.06293445
236	0x3cb32148	0.021866456
237	0x3c9eb0fc	0.019371502
238	0xbba80390	-0.005127378
239	0xbd49cc3d	-0.049267042
240	0xbcf4a64a	-0.029864449
241	0x3dadbb5b	0.08483001
242	0xbdb54470	-0.08850944
243	0xbd77b4e5	-0.06047525
244	0xbd19d1c2	-0.037553556
245	0xbd4acc03	-0.049510967
246	0x3cfcc25a	0.030854393
247	0x3d5bc01b	0.053650003
248	0xbd3cb7c7	-0.0460737
249	0xbd55fa35	-0.05224057
250	0x3d3d3b6a	0.04619924
251	0xbccafd94	-0.024779119
252	0xbd7a2484	-0.06106998
253	0xbd68a387	-0.056796577
254	0x3d9c9477	0.07645505
255	0xbda6ddcd	-0.08147774

advantage_hidden_layer.weight_sigma f4 [128, 128]
0	0x3d29cd3e	0.0414555
1	0x3d3504f3	0.044194173
2	0x3d3a9727	0.045554306
3	0x3d3d997e	0.04628896
4	0x3d3504f3	0.044194173
5	0x3d3504f3	0.044194173
6	0x3d0b6c0d	0.034038592
7	0x3d3ce78d	0.04611926
8	0x3d3504f3	0.044194173
9	0x3d3504f3	0.044194173
10	0x3d1918d6	0.0373772
11	0x3d348d27	0.044079926
12	0x3d3504f3	0.044194173
13	0x3d3504f3	0.044194173
14	0x3d3c0d7e	0.045911305
15	0x3d2ba342	0.04190374
16	0x3d3504f3	0.044194173
17	0x3d3504f3	0.044194173
18	0x3d3504f3	0.044194173
19	0x3d174295	0.036928732
20	0x3d3504f3	0.044194173
21	0x3d130e2b	0.035902184
22	0x3d3504f3	0.044194173
23	0x3d4c8d91	0.049939696
24	0x3d3504f3	0.044194173
25	0x3d3504f3	0.044194173
26	0x3d19ea10	0.037576735
27	0x3d3504f3	0.044194173
28	0x3d3504f3	0.044194173
29	0x3d3504f3	0.044194173
30	0x3d09caec	0.033640787
31	0x3d3ec49f	0.04657423
32	0x3d38e16d	0.045136858
33	0x3d32e0f1	0.043671552
34	0x3d200491	0.039066855
35	0x3d3504f3	0.044194173
36	0x3d3504f3	0.044194173
37	0x3d0a4a8d	0.033762503
38	0x3d3504f3	0.044194173
39	0x3d164b2e	0.03669279
40	0x3d3504f3	0.044194173
41	0x3d1a6495	0.03769358
42	0x3d3504f3	0.044194173
43	0x3d43c240	0.047792673
44	0x3d3504f3	0.044194173
45	0x3d3504f3	0.044194173
46	0x3d2fb490	0.042896807
47	0x3d3504f3	0.044194173
48	0x3d8a931b	0.067663394
49	0x3d3504f3	0.044194173
50	0x3d0819c6	0.033227704
51	0x3d3504f3	0.044194173
52	0x3d1ef480	0.038807392
53	0x3d31053f	0.043217894
54	0x3d3504f3	0.044194173
55	0x3d0fe576	0.03513094
56	0x3d44d2dd	0.048052657
57	0x3d3d2416	0.046176992
58	0x3d3504f3	0.044194173
59	0x3d52e007	0.05148318
60	0x3d3504f3	0.044194173
61	0x3d3fbea6	0.046812676
62	0x3d3504f3	0.044194173
63	0x3d141dd2	0.03616125
64	0x3d106fd0	0.035262883
65	0x3d3504f3	0.044194173
66	0x3d3504f3	0.044194173
67	0x3d1d664f	0.038427647
68	0x3cbd1dc5	0.023085484
69	0x3d3504f3	0.044194173
70	0x3d3504f3	0.044194173
71	0xbcb264de	-0.021776613
72	0x3d80691a	0.062700465
73	0x3d3504f3	0.044194173
74	0x3d3504f3	0.044194173
75	0x3d6101a8	0.05493322
76	0x3d3504f3	0.044194173
77	0x3d06b8bc	0.03289102
78	0x3bf6c234	0.007530475
79	0x3d3c0dbb	0.045911532
80	0x3d6eeeab	0.05833308
81	0x3d5d4880	0.05402422
82	0x3d4e8534	0.05042
83	0x3d2e49bc	0.042550787
84	0x3bcbaca4	0.0062156487
85	0x3cf3fa35	0.029782394
86	0x3d0cb2da	0.034350254
87	0x3d2e563e	0.042562716
88	0x3d3504f3	0.044194173
89	0x3d3504f3	0.044194173
90	0x3c3f1239	0.011662059
91	0x3d504dce	0.05085545
92	0x3d3504f3	0.044194173
93	0x3d337fb9	0.043822978
94	0x3d3504f3	0.044194173
95	0x3be5ffa4	0.007019
96	0xbcbfce4e	-0.023413803
97	0x3d417848	0.04723385
98	0x3d3504f3	0.044194173
99	0x3d254b23	0.04035486
100	0x3d5b5509	0.053547893
101	0x3d463500	0.04839039
102	0x3d3504f3	0.044194173
103	0x3d3504f3	0.044194173
104	0x3d1c6ce0	0.03818977
105	0x3d1bb31d	0.038012613
106	0x3d2e3410	0.04253012
107	0x3d3504f3	0.044194173
108	0x3d3504f3	0.044194173
109	0x3d3504f3	0.044194173
110	0x3d3504f3	0.044194173
111	0x3d3504f3	0.044194173
112	0x3d13226a	0.03592149
113	0x3d52aab9	0.051432345
114	0x3d1875a7	0.037221577
115	0x3d1a324d	0.037645627
116	0x3d3504f3	0.044194173
117	0x3d1e95f2	0.038717218
118	0x3da2d74f	0.07951223
119	0x3d13dcc9	0.03609923
120	0x3d46cd50	0.048535645
121	0x3d489d9f	0.048978444
122	0x3d3504f3	0.044194173
123	0x3d3504f3	0.044194173
124	0x3d3504f3	0.044194173
125	0x3d3504f3	0.044194173
126	0x3d3504f3	0.044194173
127	0x3d1e1fec	0.03860466
128	0x3d0b574a	0.034018792
129	0x3d3504f3	0.044194173
130	0x3d6bf206	0.05760386
131	0x3d1ab7fb	0.037773114
132	0x3d3504f3	0.044194173
133	0x3d3504f3	0.044194173
134	0x3d101e96	0.03518542
135	0x3d25f344	0.0405152
136	0x3d3504f3	0.044194173
137	0x3d3504f3	0.044194173
138	0x3d1affe4	0.037841693
139	0x3d2bb23e	0.041918032
140	0x3d3504f3	0.044194173
141	0x3d3504f3	0.044194173
142	0x3d0ab908	0.033867866
143	0x3d4a4735	0.049384315
144	0x3d3504f3	0.044194173
145	0x3d3504f3	0.044194173
146	0x3d3504f3	0.044194173
147	0x3d4a8b75	0.049449403
148	0x3d3504f3	0.044194173
149	0x3d11d21f	0.035600778
150	0x3d3504f3	0.044194173
151	0x3d497813	0.049186777
152	0x3d3504f3	0.044194173
153	0x3d3504f3	0.044194173
154	0x3d3504f3	0.044194173
155	0x3d3504f3	0.044194173
156	0x3d3504f3	0.044194173
157	0x3d3504f3	0.044194173
158	0x3d0a697e	0.03379201
159	0x3d29c252	0.041445084
160	0x3d4e0cff	0.050305363
161	0x3d4ddbb4	0.050258353
162	0x3d2bfb4c	0.041987702
163	0x3d3504f3	0.044194173
164	0x3d3504f3	0.044194173
165	0x3d195895	0.037437994
166	0x3d3504f3	0.044194173
167	0x3d37a08a	0.044830836
168	0x3d3504f3	0.044194173
169	0x3d3f5f1b	0.04672156
170	0x3d3504f3	0.044194173
171	0x3d211bd5	0.039333183
172	0x3d3504f3	0.044194173
173	0x3d3504f3	0.044194173
174	0x3d44c5e0	0.04804027
175	0x3d3504f3	0.044194173
176	0x3d40c6e8	0.04706469
177	0x3d3504f3	0.044194173
178	0x3d616097	0.055023756
179	0x3d3504f3	0.044194173
180	0x3d1c6d6b	0.038190287
181	0x3d2c854d	0.042119313
182	0x3d3504f3	0.044194173
183	0x3d307d28	0.04308811
184	0x3d42f7b3	0.047599506
185	0x3d4c1e15	0.049833376
186	0x3d3504f3	0.044194173
187	0x3d34ea4a	0.044168748
188	0x3d3504f3	0.044194173
189	0x3d1f2ba5	0.038859982
190	0x3d3504f3	0.044194173
191	0x3d29d5b6	0.041463576
192	0x3d5e8ec2	0.054335363
193	0x3d3504f3	0.044194173
194	0x3d3504f3	0.044194173
195	0x3d19b63b	0.037527304
196	0x3cc8036a	0.02441569
197	0x3d3504f3	0.044194173
198	0x3d3504f3	0.044194173
199	0xbb13c8c1	-0.0022550079
200	0x3d348baa	0.044078507
201	0x3d3504f3	0.044194173
202	0x3d3504f3	0.044194173
203	0x3d1a9f49	0.037749562
204	0x3d3504f3	0.044194173
205	0x3d154e78	0.036451787
206	0x3c042a83	0.008066776
207	0x3d25404c	0.04034452
208	0x3d4ee755	0.050513584
209	0x3d3504f3	0.044194173
210	0x3d458c64	0.04822959
211	0x3d3504f3	0.044194173
212	0x3cfbd7da	0.030742574
213	0x3d1957d3	0.03743727
214	0x3d0fe41f	0.035129663
215	0x3d10066f	0.035162386
216	0x3d3504f3	0.044194173
217	0x3d3504f3	0.044194173
218	0xbd0396bd	-0.032126177
219	0x3d9c50c0	0.07632589
220	0x3d3504f3	0.044194173
221	0x3d33e024	0.04391493
222	0x3d3504f3	0.044194173
223	0x3d2c9966	0.04213848
224	0x3cacd286	0.02109648
225	0x3d39a164	0.04531993
226	0x3d3504f3	0.044194173
227	0x3d0e33ba	0.0347173
228	0x3dc2a7db	0.09504672
229	0x3d1e1be7	0.03860083
230	0x3d3504f3	0.044194173
231	0x3d3504f3	0.044194173
232	0x3d3504f3	0.044194173
233	0x3d16237f	0.036654945
234	0x3d15cb17	0.036570635
235	0x3d3504f3	0.044194173
236	0x3d3504f3	0.044194173
237	0x3d3504f3	0.044194173
238	0x3d3504f3	0.044194173
239	0x3d3504f3	0.044194173
240	0x3d3f3e28	0.046690136
241	0x3d3504f3	0.044194173
242	0x3d3ae39f	0.045627233
243	0x3d2c2500	0.042027473
244	0x3d3504f3	0.044194173
245	0x3d1b75be	0.037954085
246	0x3d39bba4	0.045344964
247	0x3d594c9b	0.053051572
248	0x3d4fce0c	0.05073361
249	0x3d152656	0.036413513
250	0x3d3504f3	0.044194173
251	0x3d3504f3	0.044194173
252	0x3d3504f3	0.044194173
253	0x3d3504f3	0.044194173
254	0x3d3504f3	0.044194173
255	0x3d5e37e3	0.054252516

advantage_hidden_layer.bias_mu f4 [128]
0	0xbcf10dbb	-0.029425493
1	0x3d169445	0.036762495
2	0xbdad2462	-0.08454205
3	0x3a52a08f	0.00080347894
4	0xbde3f598	-0.11130828
5	0xbce48562	-0.027895633
6	0x3d7c7170	0.06163162
7	0x3d830abe	0.06398533
8	0xbe0bf71d	-0.13668485
9	0xbd80f9da	-0.062976554
10	0x3cc75315	0.024331609
11	0xbc7f884d	-0.0155964615
12	0xbd568ae7	-0.05237856
13	0x3c811171	0.015755387
14	0x3cc521d0	0.024063975
15	0xbb8ee19a	-0.00436039
16	0x3d38e46f	0.045139726
17	0xbda6d860	-0.08146739
18	0xbde212a0	-0.11038709
19	0xbcc39806	-0.023876201
20	0x3cf49d8c	0.02986028
21	0xbda87795	-0.082259335
22	0xbc619c08	-0.013770111
23	0xbd9eba93	-0.0775043
24	0x3cd0f9fc	0.025509827
25	0xbd9bff27	-0.07617026
26	0x3d313038	0.043258876
27	0xbdb0fabf	-0.08641576
28	0xbd594004	-0.053039566
29	0x3d5fb2f4	0.054614022
30	0xbd4bda0f	-0.049768504
31	0x3d16e648	0.036840707
32	0x3d82b2f2	0.06381787
33	0xbdb45a63	-0.088063024
34	0xbdac63dc	-0.08417484
35	0x3aab96d7	0.0013091218
36	0xbd76ad8f	-0.060224112
37	0xbd5d9762	-0.054099448
38	0xbc2bddaa	-0.010489861
39	0xbdd0c144	-0.101931125
40	0x3d106ed0	0.03526193
41	0xbdb8327f	-0.08994006
42	0xbd220a9b	-0.039560895
43	0xbd8f615d	-0.070009924
44	0xbc8aabea	-0.016927678
45	0x3d3e6f9e	0.046493165
46	0xbdcf9cb1	-0.101373084
47	0xbc92ec02	-0.017934803
48	0xbd454924	-0.048165455
49	0x3c859f8b	0.016311428
50	0x3b6d6041	0.0036220702
51	0xbda4ab3f	-0.08040475
52	0xbdc55eaa	-0.09637196
53	0xbd20f008	-0.03929141
54	0xbca97c55	-0.020689169
55	0xbc45f6cd	-0.012082768
56	0x3d887b4c	0.06664142
57	0xb9418aa9	-0.00018457569
58	0x3bd3eb97	0.0064672935
59	0x3d7cb04a	0.06169156
60	0x3a657cbc	0.00087542436
61	0xbd4f0c01	-0.050548557
62	0xbde4c24e	-0.11169873
63	0xbdf2de60	-0.11858821
64	0x3d8c1e73	0.06841745
65	0xbcbd6f1d	-0.023124272
66	0x3d0c277b	0.03421734
67	0x3d19ae7e	0.037519924
68	0x3d395a74	0.04525228
69	0xbd9ba7a4	-0.07600334
70	0x3d87691d	0.06611846
71	0xbccef602	-0.02526379
72	0x3cc736b0	0.02431807
73	0xbd031601	-0.032003406
74	0x3d42dae2	0.047572024
75	0xbd1d9987	-0.038476493
76	0xbdc45b7d	-0.095877625
77	0x3d54938b	0.05189852
78	0xbdb2fb94	-0.08739391
79	0xbd18d338	-0.03731081
80	0x3bc9708c	0.00614745
81	0xbd200a44	-0.03907229
82	0x3d901908	0.07036024
83	0xbb9228af	-0.0044604163
84	0x3d068da0	0.032849908
85	0x3cb402d1	0.021974
86	0xbdc0561a	-0.093914226
87	0x3cd33944	0.025784142
88	0xbce7e0fa	-0.02830552
89	0xbd5aa2ac	-0.053377792
90	0xbdf56298	-0.11981696
91	0xbdd8498f	-0.10560905
92	0x3b6d4584	0.0036204765
93	0xbd90cebe	-0.07070683
94	0xbd683ebb	-0.05670045
95	0x3d788a1d	0.06067859
96	0xbd9d4967	-0.07680016
97	0xbc19b347	-0.009381122
98	0x3c9f4474	0.01944182
99	0xbd85badd	-0.06529782
100	0x3d2844d4	0.041081265
101	0xbc70ce4b	-0.014697622
102	0x3d12b76b	0.035819452
103	0xbc36f606	-0.011167055
104	0xbd8b2bc0	-0.06795454
105	0x3c36be20	0.011153728
106	0xbc855868	-0.016277507
107	0xbd674330	-0.05646056
108	0xbcc5f1bc	-0.02416312
109	0xbc1bf0c8	-0.009517856
110	0x3d076cc0	0.033062696
111	0x3d85c124	0.06530979
112	0xbde2cc2b	-0.11074098
113	0xbd9688d0	-0.07350314
114	0xbdb4cefe	-0.08828543
115	0xbd44a8cf	-0.04801255
116	0xbd5ead28	-0.054364353
117	0xbd3a1b58	-0.045436233
118	0x3ce5269a	0.027972508
119	0xbc57a0ee	-0.013160927
120	0x3cdf1937	0.027233703
121	0x3d8d5861	0.069016226
122	0xbcd85338	-0.02640687
123	0xbc2ef5c5	-0.010678713
124	0x3d7e1bf3	0.062038373
125	0x3d77dc0f	0.0605126
126	0xbde394b4	-0.11112347
127	0xbda57eab	-0.080808006

advantage_hidden_layer.bias_sigma f4 [128]
0	0x3c0a7e94	0.00845303
1	0x3d0b6ffd	0.034042347
2	0x3cf5875c	0.029971771
3	0x3d0665a5	0.03281178
4	0xbcaa978f	-0.020824222
5	0xbda85db3	-0.08220997
6	0x3d04cb71	0.03242058
7	0x3d24bcc0	0.04021907
8	0xbc19c9c5	-0.0093864845
9	0x3d11ade2	0.03556622
10	0x3d07cda5	0.033155102
11	0x3ce05a13	0.0273867
12	0x3d3d8d97	0.04627761
13	0x3d0b1287	0.033953216
14	0x3d02fb68	0.03197804
15	0x3d05e12d	0.032685447
16	0x3c55bea3	0.01304594
17	0x3d44e26a	0.048067488
18	0x3ce27540	0.0276438
19	0x3d1d6972	0.03843064
20	0x3d0bd0d2	0.034134693
21	0x3c001f58	0.007819973
22	0x3cdb52e0	0.026772916
23	0x3d2ebd4d	0.042661
24	0x3cb4b58d	0.022059226
25	0x3d08ecc8	0.033428937
26	0x3d389ee6	0.045073412
27	0x3cd239bc	0.025662296
28	0x3d1c2390	0.038119853
29	0x3cd681a8	0.026184872
30	0x3d84e9de	0.06489919
31	0x3cfce271	0.030869694
32	0x3ccfdf48	0.025375023
33	0x3c249192	0.010044472
34	0x3d11c6c9	0.035589967
35	0x3d3eb4ea	0.04655925
36	0x3d0174c4	0.031605497
37	0x3d1ff964	0.039056197
38	0x3c81664a	0.015795846
39	0x3cf8de54	0.030379452
40	0x3cd3f486	0.025873434
41	0x3d00399e	0.031304948
42	0x3d06fc89	0.03295568
43	0x3d6bbca2	0.05755294
44	0x3d1c01bf	0.038087603
45	0x3d11f836	0.035637103
46	0x3d5ba7e3	0.053626906
47	0x3dda15d7	0.10648697
48	0x3d275ae4	0.040858164
49	0x3d1dbe1a	0.038511373
50	0x3d334c85	0.043774147
51	0x3d0a7b92	0.033809252
52	0x3d38e163	0.04513682
53	0x3cfe05f2	0.031008694
54	0x3d15e62e	0.03659647
55	0x3d32e563	0.04367579
56	0x3d38a8de	0.04508292
57	0x3d28633f	0.041110273
58	0xbb49f86c	-0.0030818237
59	0x3d03a4b4	0.032139495
60	0x3d99f6af	0.07517754
61	0x3cd7ce25	0.026343415
62	0xbbb98444	-0.0056615192
63	0x3d464817	0.048408594
64	0x3d0e1fee	0.03469842
65	0x3d12ed69	0.035870943
66	0x3ce16f0d	0.027518773
67	0x3c931193	0.017952716
68	0x3d2ad940	0.041711092
69	0x3c01d460	0.007924169
70	0x3d21691f	0.039406892
71	0x3d18b665	0.03728332
72	0x3ce1f21f	0.027581273
73	0x3cd00360	0.025392234
74	0x3d500c5e	0.050793044
75	0x3ce071a0	0.02739793
76	0x3d3ecfd1	0.046584908
77	0x3d1e9c1f	0.038723107
78	0x3c26e8f3	0.010187375
79	0xbbcbcef4	-0.006219739
80	0x3d00b9fb	0.031427365
81	0xbbe5a984	-0.007008733
82	0x3d5f2dc0	0.05448699
83	0x3d0c5967	0.03426495
84	0x3d2532cd	0.04033165
85	0x3aaee987	0.0013344743
86	0x3d16e60d	0.036840487
87	0x3d02e6fd	0.03195857
88	0x3c3b832b	0.011444847
89	0x3cd3b616	0.025843661
90	0x3a0ade2c	0.00052973884
91	0x3d3257c7	0.043540742
92	0x3d13a09f	0.036041852
93	0x3ca8fb40	0.020627618
94	0x3c8872b6	0.016656261
95	0x3d184018	0.0371705
96	0x3c8697b4	0.01642976
97	0x3daeca30	0.08534658
98	0x3d4157ef	0.047203
99	0x3d2489d6	0.040170513
100	0x3d573014	0.052536085
101	0xbab73be5	-0.0013979642
102	0x3d288a82	0.041147716
103	0x3d5dd9a8	0.05416265
104	0x3c249e57	0.010047517
105	0x3d1d2bfa	0.038372017
106	0x3d17fb35	0.037104804
107	0x3d316231	0.043306533
108	0x3c2185cd	0.009858561
109	0x3b0ac9dd	0.0021177449
110	0x3d1989e1	0.037485007
111	0x3d1e617d	0.03866719
112	0x3d4d6e57	0.050154056
113	0x3c346ea5	0.011012708
114	0x3d7ce074	0.061737493
115	0x3d092878	0.03348586
116	0x3cd86d7e	0.026419397
117	0x3aa4e384	0.0012580012
118	0x3cf13628	0.029444769
119	0x3d22d58e	0.039754443
120	0x3d1b3594	0.037892893
121	0x3d0fc9e6	0.035104655
122	0x3d2e729e	0.042589776
123	0x3d077583	0.033071052
124	0x3d570e45	0.052503843
125	0x3d02450f	0.03180414
126	0x39b8386f	0.0003513726
127	0x3ca96c98	0.020681664

advantage_hidden_layer.weight_epsilon f4 [128, 128]
0	0x3e99de88	0.3005259
1	0xbf94730a	-1.1597607
2	0x3f8168e3	1.0110134
3	0x3f9b1432	1.2115538
4	0xbebd3384	-0.36953366
5	0x3e5deffd	0.2167358
6	0x3e92e137	0.2868745
7	0x3f474e10	0.7785349
8	0xbf2e1dd3	-0.6801426
9	0x3fdbfb2c	1.7186027
10	0x3f6d3413	0.92657584
11	0xbea9bfe6	-0.3315422
12	0xbf9a0575	-1.2032915
13	0xbe6aa73e	-0.2291536
14	0xbefab829	-0.48968628
15	0xbe253d0f	-0.16136573
16	0xbf94ea40	-1.1633987
17	0xbf81c42f	-1.0137995
18	0xbf9ab1f6	-1.2085559
19	0x3f5523f5	0.8325799
20	0x3ed45c26	0.41476554
21	0x3f8c1fae	1.0947168
22	0x3f6842ce	0.90726936
23	0x3f72a9e0	0.9479046
24	0xbf64604e	-0.8920945
25	0x3f0ec269	0.55765396
26	0xbf5d7b10	-0.86515903
27	0x3f171946	0.5902294
28	0xbf17a40f	-0.5923471
29	0x3ea1289a	0.3147629
30	0xbf9cd0ea	-1.2251256
31	0x3f83885c	1.0275989
32	0xbf80c045	-1.0058676
33	0xbf38fdd7	-0.7226233
34	0x3f778941	0.9669381
35	0xbf2dd81d	-0.6790789
36	0x3f18d57d	0.5970076
37	0xbf8a244f	-1.079233
38	0xbe45cdfa	-0.19316855
39	0x3e268980	0.1626339
40	0x3f485c4a	0.7826582
41	0xbee0ba6b	-0.43892226
42	0xbf90f4ba	-1.1324685
43	0x3fb6a79e	1.4269903
44	0xbf282c75	-0.65692836
45	0x3f1f8872	0.62317574
46	0x3f62bcf3	0.88569564
47	0x3fb0fd77	1.3827351
48	0xbf37469b	-0.7159211
49	0xbf955a88	-1.1668253
50	0x3f789b00	0.9711151
51	0xbf1f4404	-0.6221316
52	0xbef4777c	-0.4774741
53	0x3ed3e7a6	0.4138767
54	0x3fc6f2fb	1.5542902
55	0xbf4715c5	-0.7776759
56	0xbf19dc94	-0.601022
57	0x3f44cb8a	0.76873076
58	0x3f47ca12	0.7804271
59	0x3eda60a8	0.42651868
60	0xbf8b1a94	-1.0867486
61	0xbf60f3a4	-0.87871766
62	0xbf03efea	-0.51537955
63	0x3f9dd5cc	1.2330871
64	0x3ebee10a	0.37281066
65	0x3eb6d7db	0.3571156
66	0x3efb5ab1	0.4909263
67	0x3ee85de0	0.4538412
68	0xbf077f07	-0.52928203
69	0xbf9e97ea	-1.239011
70	0xbf3d7293	-0.7400295
71	0xbeca9f99	-0.39574888
72	0x3fa42eaa	1.2826741
73	0xbf5e4a7c	-0.86832404
74	0xbf90cef6	-1.131316
75	0xbe45a2dc	-0.19300407
76	0x3fb250f8	1.393096
77	0xbf09380d	-0.5360115
78	0xbe98ae3d	-0.29820433
79	0xbf6d50fb	-0.9270169
80	0x3f4b0d59	0.7931724
81	0x3f53033a	0.824268
82	0x3edfd129	0.43714264
83	0x3f05a1af	0.52199835
84	0x3f1bd47c	0.608711
85	0x3f2ca4b7	0.67438835
86	0xbf97ea27	-1.1868333
87	0x3f7af814	0.9803479
88	0x3f835fb9	1.0263587
89	0x3fd34ef2	1.6508467
90	0x3f799cbc	0.9750478
91	0x3f2dea15	0.67935306
92	0x3fa98bc4	1.3245778
93	0xbfa84fc5	-1.3149344
94	0x3fbd3731	1.4782468
95	0xbf81c245	-1.0137411
96	0xbf3f0bf4	-0.74627614
97	0x3dfc2407	0.12311559
98	0xbfa1ce35	-1.2641054
99	0x3f3b0f0a	0.7306982
100	0x3e895a89	0.26826885
101	0xbfb9cf2d	-1.451635
102	0xbf6e89bc	-0.93178916
103	0xbf36cd43	-0.71406955
104	0x3fa9182c	1.3210502
105	0x3fa4ae9a	1.2865784
106	0x3f6862cb	0.90775746
107	0xbf89ba75	-1.0760027
108	0x3f8d8a90	1.1057911
109	0xbfa72e69	-1.3061038
110	0x3f0e6bfb	0.55633515
111	0xbef4b00a	-0.47790557
112	0x3f58cd9e	0.84688747
113	0xbfc00245	-1.5000693
114	0x3f9fbd02	1.2479556
115	0x3e0c8bb5	0.13725169
116	0xbef1147e	-0.47085947
117	0xbf34aa53	-0.70572394
118	0xbe828ba3	-0.2549716
119	0x3f8359bf	1.0261763
120	0xbf9158f3	-1.135527
121	0x3f2c667d	0.67343885
122	0x3f2d0c3e	0.67596805
123	0x3f2ed549	0.682942
124	0xbf93a9cb	-1.1536192
125	0xbf821c3e	-1.0164869
126	0x3f97baa6	1.1853836
127	0x3f9fc44d	1.2481781
128	0x3e957e45	0.29197899
129	0xbf903a3d	-1.1267773
130	0x3f7b7569	0.9822603
131	0x3f96ab21	1.1770974
132	0xbeb7d205	-0.3590242
133	0x3e57a027	0.21057187
134	0x3e8eb3d8	0.27871585
135	0x3f41a301	0.7563935
136	0xbf292a27	-0.66079944
137	0x3fd5b994	1.6697259
138	0x3f667517	0.90022415
139	0xbea4ec05	-0.3221132
140	0xbf95a417	-1.1690701
141	0xbe63fad4	-0.22263652
142	0xbef396c6	-0.47575969
143	0xbe208a06	-0.15677652
144	0xbf90ae0f	-1.1303118
145	0xbf7c26d0	-0.98496723
146	0xbf964bb0	-1.1741848
147	0x3f4f142b	0.8089015
148	0x3ece520a	0.40296966
149	0x3f88237f	1.0635833
150	0x3f61a7cf	0.8814668
151	0x3f6bc323	0.9209463
152	0xbf5de196	-0.8667234
153	0x3f0ab30a	0.5417944
154	0xbf572e8c	-0.840554
155	0x3f12cd30	0.5734434
156	0xbf135405	-0.5755008
157	0x3e9c9346	0.3058111
158	0xbf985b33	-1.1902832
159	0x3f7f9573	0.99837416
160	0xbf7a2dc4	-0.9772608
161	0xbf33bafe	-0.702072
162	0x3f707f0b	0.9394385
163	0xbf28e66c	-0.65976596
164	0x3f147cc4	0.5800288
165	0xbf86368d	-1.0485398
166	0xbe402dd7	-0.18767487
167	0x3e21cd03	0.15800862
168	0x3f42a98b	0.7603995
169	0xbeda5643	-0.42643937
170	0xbf8cd55c	-1.1002612
171	0x3fb175c8	1.3864069
172	0xbf23640e	-0.63824546
173	0x3f1afef3	0.6054527
174	0x3f5c4a29	0.8605066
175	0x3fabf4df	1.3434104
176	0xbf321040	-0.69556046
177	0xbf911b25	-1.1336409
178	0x3f718901	0.94349676
179	0xbf1abc77	-0.60443825
180	0xbeed839f	-0.4638948
181	0x3ecde0db	0.40210614
182	0x3fc14a83	1.5100864
183	0xbf416c50	-0.75555897
184	0xbf157c5f	-0.583929
185	0x3f3f32c1	0.7468682
186	0x3f421b7c	0.7582319
187	0x3ed42abc	0.41438854
188	0xbf8725d2	-1.0558417
189	0xbf5a8ddc	-0.8537271
190	0xbf002f55	-0.5007222
191	0x3f9958a9	1.1980182
192	0x3eb97353	0.36220798
193	0x3eb1a4a5	0.34695926
194	0x3ef434af	0.47696444
195	0x3ee1c21b	0.44093403
196	0xbf03a488	-0.5142293
197	0xbf9a1542	-1.2037737
198	0xbf380f48	-0.7189832
199	0xbec4dc61	-0.38449386
200	0x3f9f8352	1.2461951
201	0xbf57f812	-0.843629
202	0xbf8cb0ab	-1.0991415
203	0xbe4003f3	-0.18751507
204	0x3fad3eb9	1.3534766
205	0xbf055104	-0.52076745
206	0xbe9456a2	-0.28972346
207	0xbf66912c	-0.90065265
208	0x3f454702	0.77061474
209	0x3f4d02ee	0.80082595
210	0x3ed973a4	0.4247104
211	0x3f01d4c4	0.5071528
212	0x3f1765f3	0.5913994
213	0x3f27bbc5	0.6552089
214	0xbf939820	-1.15308
215	0x3f73d4df	0.9524669
216	0x3f7f467c	0.99716926
217	0x3fcd4c7e	1.6038969
218	0x3f728369	0.94731766
219	0x3f28f7e1	0.66003233
220	0x3fa4b95f	1.2869071
221	0xbfa3865c	-1.2775378
222	0x3fb7d596	1.4362056
223	0xbf7c2319	-0.98491055
224	0xbf399d05	-0.7250522
225	0x3df4f84b	0.119614206
226	0xbf9d342a	-1.2281544
227	0x3f35bd24	0.7099173
228	0x3e857284	0.2606393
229	0xbfb4865f	-1.4103507
230	0xbf67c109	-0.90528923
231	0xbf319a5b	-0.6937615
232	0x3fa44910	1.2834797
233	0x3f9fff9e	1.2499883
234	0x3f61c6e2	0.88194096
235	0xbf85cfb6	-1.0454013
236	0x3f89840f	1.0743426
237	0xbfa26d3b	-1.2689584
238	0x3f0a5f11	0.5405131
239	0xbeedba91	-0.464314
240	0x3f52a329	0.8228021
241	0xbfba8c54	-1.4574075
242	0x3f9b3204	1.2124639
243	0x3e088c73	0.13334827
244	0xbeea3949	-0.4574683
245	0xbf2f86f8	-0.6856532
246	0xbe7daa5f	-0.24772023
247	0x3f7f3ade	0.996992
248	0xbf8d36bb	-1.1032327
249	0x3f277f50	0.6542864
250	0x3f282059	0.6567436
251	0x3f29dc66	0.66351926
252	0xbf8f76b7	-1.1208104
253	0xbf7cd1ed	-0.9875782
254	0x3f9369f8	1.1516714
255	0x3f9b391a	1.2126801

advantage_hidden_layer.bias_epsilon f4 [128]
0	0x3f835f5e	1.0263479
1	0x3f7f45cb	0.9971587
2	0x3f81bb95	1.013537
3	0x3f96f929	1.1794788
4	0x3f8446c0	1.0334091
5	0x3f4231d9	0.7585731
6	0x3f78e931	0.9723082
7	0xbf12877e	-0.57237995
8	0x3f6d443b	0.92682236
9	0x3e85c7a9	0.2612889
10	0x3ecdb4ed	0.40177098
11	0xbf86f1b6	-1.0542514
12	0xbf2727d2	-0.65295136
13	0x3f99652f	1.1984004
14	0xbe498735	-0.19680484
15	0xbf2a36e0	-0.6648998
16	0xbf657ce2	-0.8964368
17	0xbf0ff31c	-0.5623033
18	0xbed517bb	-0.41619667
19	0x3f05f623	0.523287
20	0x3eff16bb	0.4982203
21	0x3f168f97	0.5881285
22	0xbefed4e4	-0.49771798
23	0x3e501523	0.20320563
24	0xbf835345	-1.0259787
25	0xbf81c3a3	-1.0137829
26	0x3f6e1f36	0.93016374
27	0x3f8fad5f	1.1224784
28	0xbfd0434f	-1.6270541
29	0xbebe4ab9	-0.37166384
30	0xbec5c950	-0.38630152
31	0x3f665d73	0.8998634
32	0x3f2c0bfc	0.67205787
33	0xbf57bf26	-0.84276044
34	0xbf0fd971	-0.56191164
35	0xbf46d850	-0.77673817
36	0xbfd1f729	-1.6403552
37	0xbf2a8c3b	-0.66620225
38	0xbf1eb033	-0.6198761
39	0xbda01c24	-0.078178674
40	0xbf97a943	-1.184853
41	0x3f8dfdc7	1.1093072
42	0x3fb1b76e	1.3884103
43	0x3f47f87f	0.7811355
44	0x3f7f9d4d	0.99849397
45	0xbf41d56d	-0.75716287
46	0xbf7b7a44	-0.9823344
47	0x3f8ede22	1.116154
48	0x3f7801a6	0.96877515
49	0xbec29f4e	-0.38012165
50	0x3f81634c	1.0108428
51	0xbf46d812	-0.7767345
52	0x3f306e92	0.68918717
53	0xbf9e5dca	-1.2372372
54	0x3e4a8baf	0.19779848
55	0x3f892bbf	1.0716475
56	0xbf623027	-0.88354725
57	0xbf108121	-0.56447035
58	0x3f98b3de	1.1929891
59	0x3eb1dbd7	0.34738037
60	0xbf5d9b07	-0.8656468
61	0x3f093dd5	0.53609973
62	0xbf909a84	-1.1297154
63	0xbf1e5013	-0.61840934
64	0xbfae5f02	-1.3622744
65	0x3f42ba2f	0.76065344
66	0x3f5c8617	0.86142105
67	0xbf4eceab	-0.807841
68	0x3f111464	0.5667174
69	0x3f2e7a1c	0.68155074
70	0xbf23abe0	-0.63934135
71	0xbf2ee68a	-0.68320525
72	0xbe85c89d	-0.26129618
73	0xbf9a467c	-1.205276
74	0xbf3ad0bc	-0.72974753
75	0x3ef5f0ba	0.48035222
76	0xbf35e9a7	-0.7105965
77	0x3f0bcce9	0.54609543
78	0x3f2df23a	0.67947733
79	0xbf5defa2	-0.86693776
80	0xbf890d82	-1.0707247
81	0x3f4174cf	0.7556886
82	0x3f4b3615	0.793794
83	0x3e823685	0.2543222
84	0x3faeccc7	1.3656243
85	0x3f15fa67	0.5858521
86	0xbfb053c0	-1.3775558
87	0x3f9938a0	1.1970406
88	0xbef01228	-0.46888852
89	0x3ef3b018	0.47595286
90	0x3f73b91b	0.95204324
91	0x3f99bdcb	1.2011045
92	0x3f244713	0.6417095
93	0xbf42c254	-0.7607777
94	0x3f897342	1.0738299
95	0x3f420afe	0.7579802
96	0x3f78c324	0.9717276
97	0x3f786967	0.9703583
98	0xbf49040a	-0.7852179
99	0x3f7bde0e	0.98385704
100	0x3f902305	1.1260687
101	0x3fa72ca3	1.3060497
102	0xbf802b6d	-1.0013252
103	0x3f7d35cb	0.98910207
104	0xbf9e7f11	-1.2382528
105	0x3f8afcff	1.0858458
106	0xbf413469	-0.75470597
107	0xbef273a8	-0.47353864
108	0xbe4a44bd	-0.19752784
109	0xbf8ca298	-1.098712
110	0xbf4e53ee	-0.80596817
111	0xbd29c888	-0.041451007
112	0xbf1a14f0	-0.601882
113	0x3fbde0f1	1.4834272
114	0xbee3b586	-0.4447443
115	0xbf95c301	-1.1700135
116	0xbf8b13f0	-1.086546
117	0x3f04df8b	0.519036
118	0x3f45ea36	0.773105
119	0x3f81f3d1	1.0152532
120	0xbe748458	-0.2387861
121	0x3f14f40c	0.58184886
122	0x3f17f30d	0.5935524
123	0xbf9d44c4	-1.2286611
124	0x3f32ac19	0.6979385
125	0xbf23e912	-0.6402751
126	0xbf69184e	-0.9105271
127	0xbfbdf8ec	-1.484159

advantage_layer.weight_mu f4 [255, 128]
0	0xbd56706c	-0.052353308
1	0x3ce3e4fd	0.027819151
2	0xbde9ce48	-0.11416298
3	0xbd5c1c47	-0.053737905
4	0xbdfc4a8a	-0.12318905
5	0xbde9a1bf	-0.11407804
6	0x3d999dea	0.07500823
7	0x3cd1eb7d	0.025624985
8	0x3dd8a858	0.10578984
9	0x39c13342	0.0003685002
10	0xbd466ca9	-0.04844347
11	0x3e114fb2	0.14190558
12	0xbb94d5d5	-0.0045420923
13	0xbd651aa3	-0.055933606
14	0xbd311f38	-0.043242663
15	0x3da7ae5e	0.08187555
16	0xbdb4a7b3	-0.088210486
17	0xbd2f42fb	-0.042788487
18	0x3c5ba99b	0.013407136
19	0x3d7c96b3	0.061667155
20	0x3d82b777	0.063826494
21	0xbcedc164	-0.02902288
22	0x3d7d5452	0.061847992
23	0x3d3ae86f	0.045631822
24	0x3d0897ca	0.033347882
25	0xbd91d65c	-0.07120964
26	0xbdc390be	-0.09549092
27	0x3d83d313	0.064367436
28	0xbd87f3b8	-0.066382825
29	0xbcc5c88c	-0.02414348
30	0xbcb3bd0b	-0.021940729
31	0x3cabfae4	0.020993657
32	0xbd4556a5	-0.048178334
33	0xbdddbc52	-0.10826935
34	0xbd8d9e09	-0.069149084
35	0xbd7b250a	-0.06131462
36	0xbd33443e	-0.043766253
37	0xbd8baab6	-0.0681967
38	0xbd0e39fc	-0.034723267
39	0xbc958e34	-0.018256284
40	0x3d39822a	0.04529015
41	0x3b99144e	0.00467161
42	0xbdc50778	-0.09620565
43	0xbd012cfb	-0.031537037
44	0xbd0adac8	-0.033900052
45	0xbbd26a7f	-0.0064213867
46	0xbc2da473	-0.01059829
47	0xbdc8857f	-0.09791087
48	0x3dabca38	0.083881795
49	0x3c890b34	0.016728975
50	0xbdc2d7e6	-0.095138356
51	0xbdab53af	-0.08365571
52	0xbca510fe	-0.020149704
53	0xbb30a2f3	-0.0026952594
54	0x3cbf5bdc	0.023359232
55	0x3d437c05	0.047725696
56	0xba70524e	-0.0009167538
57	0x3cd7808d	0.026306415
58	0x3d74684e	0.059669785
59	0xbd357d81	-0.044309143
60	0x3d94c7c3	0.07264664
61	0x3e16407b	0.14673035
62	0xbe221a37	-0.15830313
63	0x3d93b069	0.07211382
64	0xbcaba54c	-0.020952843
65	0xbdceb03d	-0.100922085
66	0xbca4136b	-0.02002879
67	0xbd7fddb7	-0.062467303
68	0x3ce44133	0.02786312
69	0xbc59bed7	-0.013290129
70	0x3c9f947a	0.019479979
71	0x3ba433c6	0.0050110547
72	0xbc013eda	-0.00788852
73	0xbb761861	-0.0037551152
74	0xbdb3375d	-0.08750794
75	0xbd9ebbf1	-0.07750691
76	0x3d61cb83	0.055125725
77	0xbda0e127	-0.078554444
78	0xbd76d7b2	-0.060264297
79	0xbd38f456	-0.045154892
80	0x3d2e83f4	0.04260631
81	0xbdf82346	-0.12116103
82	0x3cf7c819	0.030246781
83	0xbdcf80a0	-0.10131955
84	0x3d87b848	0.06626946
85	0x3bf2baf0	0.0074075386
86	0xbe5848a8	-0.21121466
87	0xbbd86a0f	-0.00660444
88	0x3b5e4b58	0.003391942
89	0xbc9e8915	-0.019352475
90	0xbdded19e	-0.10879825
91	0x3a3cbaf7	0.0007199491
92	0x3d2b563c	0.041830286
93	0x3d0c5e4b	0.034269612
94	0xbc38af28	-0.011272229
95	0x3d6a0b26	0.05713954
96	0xbd80ea9b	-0.062947474
97	0xbdd4e932	-0.10396041
98	0x3d8d1a73	0.068898104
99	0x3c27a6c8	0.010232635
100	0xbc1284d9	-0.008942806
101	0xbd930b74	-0.07179919
102	0xbda910a3	-0.08255126
103	0xbd09e7a4	-0.033668175
104	0xbd579579	-0.052632783
105	0x3d5e117f	0.054215904
106	0x3d9a63fe	0.07538603
107	0x3cf3d652	0.029765282
108	0xbd95bfde	-0.073119864
109	0xbd62583b	-0.055259924
110	0x3d2ce3c9	0.04220942
111	0xbd1ec8fc	-0.038765892
112	0xbc25714e	-0.010097815
113	0xbce04b7e	-0.027379747
114	0x3da960ce	0.08270417
115	0xbd7af6c3	-0.061270487
116	0x3c811797	0.015758319
117	0xbcc2c236	-0.023774248
118	0x3ccb755f	0.02483624
119	0xbd8d6634	-0.06904259
120	0x3d3ebdb8	0.04656765
121	0x3c7972fe	0.01522517
122	0xbbfb6601	-0.007672072
123	0xbdc4576c	-0.09586987
124	0xbc333afc	-0.010939356
125	0xbdc21fff	-0.09478759
126	0xbcbc8bb1	-0.023015829
127	0xbd707b92	-0.058711596
128	0xbda90466	-0.08252792
129	0x3d3f2ab7	0.046671595
130	0xbc9dce07	-0.01926328
131	0x3d831393	0.06400218
132	0xbd8255cc	-0.06364021
133	0xbbdd77e7	-0.0067586782
134	0x3cccdce3	0.02500767
135	0xbd3f232b	-0.0466644
136	0x3d95b121	0.07309175
137	0xbd88bc3e	-0.06676529
138	0xbde9a261	-0.114079244
139	0x3d8a3070	0.0674752
140	0xbd07da9b	-0.033167463
141	0x3d91af33	0.07113495
142	0xbcfb74d3	-0.030695355
143	0x3d14a67f	0.036291596
144	0xbd25959a	-0.040425874
145	0xbd57b147	-0.0526593
146	0x3b66ab36	0.0035197265
147	0xbccba645	-0.024859557
148	0xbd981880	-0.07426548
149	0x3d31d1a1	0.04341281
150	0x3c3d06c6	0.011537259
151	0xbd8444e5	-0.06458453
152	0x3d3cd902	0.046105392
153	0x3d46763e	0.04845261
154	0xbd2a64f6	-0.04160019
155	0xbd0a6725	-0.033789773
156	0xbdababa1	-0.08382345
157	0x3c916146	0.017746579
158	0x3d9da826	0.076980874
159	0x3d04a3c0	0.032382727
160	0x3dacc9fd	0.08436964
161	0xbd71c771	-0.059028093
162	0x3cb5f3d2	0.02221099
163	0x3d67f79f	0.056632634
164	0x3d84b07d	0.06478975
165	0x3c613e76	0.013747802
166	0xbce994e2	-0.028513376
167	0xbdad7412	-0.08469404
168	0x3cb005e7	0.02148719
169	0xbd847a9a	-0.06468697
170	0x3d6098ba	0.05483315
171	0x3cb95678	0.02262424
172	0xbce1566c	-0.02750703
173	0x3d9be06d	0.07611165
174	0x3c21cb3e	0.009875117
175	0x3b0d1601	0.0021528008
176	0xbd60a65e	-0.05484616
177	0xbc9e81c4	-0.019348986
178	0x3d83d532	0.06437148
179	0xbd1a8352	-0.037722893
180	0xbd95f0eb	-0.07321342
181	0x3d91f748	0.07127243
182	0x3d3405c1	0.0439508
183	0xbc9ba8ff	-0.019001482
184	0x3da4d7c2	0.08048965
185	0x3da9b97e	0.08287333
186	0x3d374065	0.044739146
187	0xbd4876d0	-0.048941433
188	0x3d811014	0.06301895
189	0x3dfd32d5	0.12363211
190	0xbdbca330	-0.09210813
191	0x3d2c7c39	0.042110655
192	0xbdbc23b9	-0.09186501
193	0x3d4e7082	0.050400265
194	0xbdb1758d	-0.08664999
195	0xbd626dcb	-0.055280488
196	0xbd81dd71	-0.06341065
197	0xbc2336d8	-0.009961806
198	0xbda31fc8	-0.07965046
199	0x3bfafdcd	0.00765965
200	0xbd0d2d7e	-0.034467213
201	0x3cd0b308	0.025475994
202	0xbd29bad3	-0.041437935
203	0xbd4b74b5	-0.049671847
204	0xbc2e6841	-0.010644973
205	0xbccf98d1	-0.025341423
206	0xbdeb202b	-0.11480745
207	0x3c21b559	0.009869897
208	0xbd38206b	-0.04495279
209	0xbc8d6ae3	-0.017262882
210	0x3cc8abb4	0.024495937
211	0x3c984a54	0.01859013
212	0x3d4c6849	0.04990414
213	0x3c2edbc5	0.010672514
214	0xbd1edf0f	-0.038786944
215	0x3cd0076e	0.025394168
216	0x3db648bc	0.08900592
217	0xbc8af4e5	-0.016962478
218	0x3bbd50b9	0.005777445
219	0xbd93a6d3	-0.072095536
220	0x3cabe263	0.020981973
221	0x3db5f73c	0.08885047
222	0x3cc8105d	0.024421865
223	0xbd03ef3a	-0.032210566
224	0xbcd73413	-0.026269948
225	0xbc996bd2	-0.01872817
226	0x3d136001	0.03598023
227	0xbd7690aa	-0.060196556
228	0xbdb05e98	-0.08611792
229	0x3d32961b	0.043600183
230	0xbcd3272f	-0.02577552
231	0x3c9298eb	0.017895183
232	0xbd107f16	-0.03527745
233	0xbd7e5d0d	-0.06210046
234	0xbda06208	-0.07831198
235	0x3d548b57	0.051890697
236	0xbd8a114a	-0.06741579
237	0xbc8013b3	-0.015634393
238	0xbd49b96d	-0.0492491
239	0xbd839859	-0.064255424
240	0xbd80c9f1	-0.06288517
241	0xbc578dac	-0.013156336
242	0x3d02ac80	0.03190279
243	0xbcfd6b9c	-0.030935101
244	0x3c8bb706	0.017055046
245	0xba9ae9ab	-0.0011818906
246	0x3d82f743	0.06394818
247	0xbde5c1a3	-0.11218574
248	0x3b820d59	0.0039688763
249	0x3d13dbfe	0.036098473
250	0x3ce6e9a6	0.028187584
251	0x3d452021	0.048126344
252	0xbd476fe5	-0.048690695
253	0x3b43b76d	0.002986397
254	0x3cc66f73	0.024223065
255	0xbd1b47c3	-0.037910234
