turtlebot3_dqn/nodes/saved_model/model.pth (torch_old, 887473 bytes, 26 tensors)

feature_layer.0.weight f4 [128, 26]
-0.19914365 -0.040134195 -0.076316014 -0.074966624 0.11702138 0.11522698 0.05221158 -0.035982415
0.08831623 -0.12353396 -0.10688502 0.0026854621 -0.18926746 0.010023878 0.05265763 0.16102466
0.13027053 -0.10345141 0.10958558 0.1141886 0.11837973 -0.14150028 -0.07303262 -0.13991103
0.20880505 0.11703692 0.15500079 -0.025866404 -0.13638157 -0.07241596 -0.0481894 0.045745194
0.013922259 0.1949505 -0.04795307 0.17812182 0.12872075 0.057235762 0.02133812 -0.05088882
-0.16881986 -0.044335395 0.0899411 0.15953024 -0.19379714 -0.18626185 -0.019777954 -0.11187621
-0.041890576 0.005186036 0.19570954 -0.13716766 -0.09014401 0.13900185 0.09721566 0.120931104
-0.1900352 0.041118503 0.17681529 -0.0026572095 0.056590308 -0.17555612 -0.09069296 -0.14768307
0.073046505 0.15246196 0.056900952 -0.18219218 -0.076947525 0.015873343 -0.055548683 -0.11238978
-0.15000594 -0.19797644 -0.078874044 0.16484706 -0.12029102 -0.11585862 -0.07245293 -0.15541454
0.022448028 -0.18763933 0.032638967 0.09925783 0.09623537 -0.24274655 -0.017336413 0.16795592
0.11395665 0.10099346 -0.23304586 -0.22992954 0.04143379 0.1565705 0.15515622 0.06965433
0.093193725 0.08242057 0.004046763 0.06466648 -0.041846983 -0.1745026 0.07145937 -0.10995273
0.08125832 0.07249037 -0.17045602 -0.21208851 -0.18504594 0.025964143 0.13599093 -0.062017724
-0.097654 0.09282861 -0.17940067 -0.0997639 -0.07920213 0.03740127 0.046544828 -0.19763918
-0.14717895 0.09947249 0.1699017 0.073955156 0.14496064 -0.12242898 -0.14423145 0.16614364
0.15037744 0.120642364 -0.07739741 0.076938614 -0.19552271 -0.09110762 0.049590096 0.14556177
-0.08385101 0.07300784 0.18770291 -0.13838795 0.059025124 0.11110215 -0.12711501 0.123306975
-0.18590614 -0.18024789 0.028183192 -0.097611345 -0.1639063 -0.035259277 -0.07485148 -0.068946615
0.19350524 -0.07546777 -0.10905516 0.07731266 -0.06354612 -0.1635133 -0.057200544 0.017083153
-0.06757982 0.16814989 0.053775657 -0.11380978 -0.015224426 0.08636266 -0.08126271 -0.2081578
0.034592666 -0.091711365 0.122154996 0.03384647 -0.06439009 0.1407987 0.070689216 0.10973475
0.035777748 0.040250756 0.035937294 -0.12247492 0.050105173 -0.21224028 -0.19827558 -0.17149156
0.11516597 0.1396951 -0.0909082 0.11884444 0.14982 0.15727846 -0.19296052 -0.07711664
0.02930915 0.09193207 0.10041116 0.043248367 -0.2179556 0.004559285 -0.17702894 0.031928122
-0.024937516 0.08529943 -0.06955932 0.010867343 0.14068995 0.08866938 -0.06436941 -0.1858091
0.09144361 -0.1463455 -0.09114877 0.17400913 -0.16415024 0.009744197 -0.12722251 -0.022396222
0.15762584 -0.16609304 -0.053597152 0.053438246 -0.12699257 0.13525523 -0.1114745 0.11128314
-0.16408777 0.13994204 0.12497489 0.0205746 -0.041719884 0.01639913 -0.18905298 -0.08685978
-0.15989253 -0.105003156 -0.18154185 0.17338102 0.048154056 -0.06525132 -0.14151725 -0.05748564
-0.0023330897 -0.0748231 0.08226095 -0.11419334 -0.026316985 0.1426154 -0.093143106 0.010263398
-0.068865985 0.18489529 -0.118723676 -0.071022004 0.18416621 0.18615909 0.03242573 0.030723542
00000000: 50ec 4bbe c163 24bd 924b 9cbd 1a88 99bd
00000010: e8a8 ef3d 1ffc eb3d cfdb 553d 4c62 13bd
00000020: 24df b43d 5fff fcbd 89e6 dabd 94fe 2f3b
00000030: 54cf 41be 313b 243c 87af 573d a6e3 243e
00000040: a365 053e 55de d3bd 686e e03d b6db e93d
00000050: 1271 f23d 73e5 10be 2092 95bd d644 0fbe
00000060: fed0 553e 0db1 ef3d 87b8 1e3e c8e5 d3bc
00000070: 9ca7 0bbe d24e 94bd 4062 45bd 505f 3b3d
00000080: 301a 643c 1ba1 473e 706a 44bd 9165 363e
00000090: 5fcf 033e 0c70 6a3d 48cd ae3c cc70 50bd
000000a0: 1ddf 2cbe 0899 35bd 0a33 b83d e55b 233e
000000b0: c272 46be 6dbb 3ebe 6005 a2bc 5b1f e5bd
000000c0: 7495 2bbd a0ef a93b 1568 483e ae75 0cbe
000000d0: 6c9d b8bd 8056 0e3e 0119 c73d baaa f73d
000000e0: 9698 42be e06b 283d 110f 353e 9424 2ebb
000000f0: 3dcb 673d fcc4 33be 3bbd b9bd 3b3a 17be
00000100: 6899 953d fd1e 1c3e f910 693d 9690 3abe
00000110: aa96 9dbd d008 823c 0487 63bd 9d2c e6bd
00000120: 289b 19be 56ba 4abe b788 a1bd abcd 283e
00000130: 235b f6bd 4947 edbd 3462 94bd fd24 1fbe
00000140: ede4 b73c 8624 40be 70b0 053d b047 cb3d
00000150: 0d17 c53d 8d92 78be 1805 8ebc a3fc 2b3e
00000160: 1b62 e93d a9d5 ce3d 93a3 6ebe a672 6bbe
00000170: 7ab6 293d 0454 203e 46e1 1e3e eea6 8e3d
00000180: 5adc be3d 1ecc a83d b59a 843b dc6f 843d
00000190: be67 2bbd cfb0 32be 4a59 923d e62e e1bd
000001a0: c36a a63d d575 943d 068c 2ebe bb2d 59be
000001b0: af7c 3dbe c1b2 d43c 3541 0b3e 4c06 7ebd
000001c0: d2fe c7bd ed1c be3d cfb4 37be 0451 ccbd
000001d0: ba34 a2bd 1332 193d caa5 3e3d ed61 4abe
000001e0: 14b6 16be 3cb8 cb3d b6fa 2d3e cd75 973d
000001f0: 9070 143e 0cbc fabd 69b1 13be 8f21 2a3e
00000200: 8bfc 193e 5813 f73d 8982 9ebd fe91 9d3d
00000210: 1b37 48be a296 babd fc1e 4b3d 250e 153e
00000220: 14ba abbd 2285 953d 3135 403e 92b5 0dbe
00000230: 54c4 713d 8689 e33d 702a 02be 5e88 fc3d
00000240: 2e5e 3ebe e792 38be 70e0 e63c 75e8 c7bd
00000250: 0ed7 27be 086c 10bd bc4b 99bd e233 8dbd
00000260: 3d26 463e d98e 9abd 5058 dfbd 1a56 9e3d
00000270: 7824 82bd 0870 27be 1e4b 6abd f8f1 8b3c
00000280: 4a67 8abd 7c2f 2c3e dd43 5c3d 1a15 e9bd
00000290: df6f 79bc e8de b03d 106d a6bd 5127 55be
000002a0: 0ab1 0d3d 2bd3 bbbd 662c fa3d 99a2 0a3d
000002b0: f4de 83bd 892d 103e 82c5 903d 9dbc e03d
000002c0: b08b 123d fadd 243d fc32 133d 21d4 fabd
000002d0: 153b 4d3d 8455 59be c108 4bbe 7c9b 2fbe
000002e0: 23dc eb3d 3b0c 0f3e 142e babd b764 f33d
000002f0: 6a6a 193e 9b0d 213e 7197 45be 54ef 9dbd
00000300: be19 f03c e246 bc3d 5ea4 cd3d 3325 313d
00000310: c12f 5fbe 0e66 953b 1347 35be 10c7 023d
00000320: c349 ccbc 78b1 ae3d 1e75 8ebd f10c 323c
00000330: 0711 103e 4b98 b53d 1cd4 83bd be44 3ebe
00000340: ca46 bb3d 98db 15be 35ac babd 732f 323e
00000350: 0017 28be 20a6 1f3c 9e46 02be 4878 b7bc
00000360: ab68 213e 4b14 2abe b088 5bbd 10e2 5a3d
00000370: 570a 02be 5980 0a3e be4c e4bd 6ae8 e33d
00000380: a006 28be f74c 0f3e d6f2 ff3d 108c a83c
00000390: 78e2 2abd 7857 863c 1b97 41be 8ae3 b1bd
000003a0: deba 23be e50b d7bd 1be6 39be cb8a 313e
000003b0: 303d 453d 7ca2 85bd e6e9 10be 1076 6bbd
000003c0: c0e6 18bb da3c 99bd 6e78 a83d 33de e9bd
000003d0: b896 d7bc c509 123e d0c1 bebd d027 283c
000003e0: 9c09 8dbd 3155 3d3e 6625 f3bd fc73 91bd
000003f0: 1196 3c3e 7da0 3e3e d8d0 043d f0af fb3c

feature_layer.0.bias f4 [128]
-0.18076856 -0.02525948 0.10212253 -0.0089382 -0.15425624 0.15313415 0.16972902 0.0007933526
-0.12064315 -0.04659228 -0.033855133 -0.14063747 -0.018284822 -0.17916833 -0.06668308 0.07380694
0.12581073 0.011486858 0.16199712 -0.024857886 0.10762356 0.10528374 -0.09143926 0.010499748
-0.12617752 -0.12163433 -0.16181874 -0.11355842 0.18861602 -0.123318344 0.10458007 0.14719084
-0.15400018 -0.1406487 0.022347324 -0.10459543 -0.12908201 -0.17065962 0.19573106 0.13943388
-0.09775566 0.16118862 0.04660523 0.023972748 0.02091889 0.06818415 -0.009585925 -0.035953254
-0.16796753 0.101191565 0.19404958 0.10156126 0.0064267456 0.046093456 -0.08052307 0.122471415
-0.14163814 -0.18474704 0.0034658462 0.05028193 0.14312933 0.06198071 0.16507708 -0.15574792
-0.21359028 -0.14672133 -0.1159959 -0.15935911 0.064121336 0.18512921 0.16082461 0.030280968
-0.05187369 0.057248667 -0.07751148 -0.040604096 -0.08871464 0.13717692 0.17697556 0.0448944
-0.19630316 -0.10749621 -0.085800216 -0.1642624 0.06804918 -0.215005 0.15097389 0.13940033
-0.20446041 0.06910829 -0.08364495 -0.18244615 -0.010429129 0.012445516 0.10949187 -0.120667234
-0.198447 -0.030040849 -0.17905223 0.12623411 0.050096937 -0.10600489 0.02167955 0.009112656
0.12635162 -0.0048566125 0.009549033 -0.11772442 -0.066260025 -0.07710894 0.17940415 0.14377706
-0.17559266 -0.12570955 0.13567042 -0.0881688 0.04779835 -0.034193084 0.117341995 -0.20269854
-0.035196293 -0.067027055 0.04492649 0.05927427 -0.13276787 -0.055403933 0.18865506 0.06378445
00000000: 651b 39be f8ec cebc 9e25 d13d 8771 12bc
00000010: 59f5 1dbe 33cf 1c3e 72cd 2d3e fef8 4f3a
00000020: c113 f7bd 8cd7 3ebd aeab 0abd 4503 10be
00000030: 0dca 95bc e777 37be 2391 88bd 1828 973d
00000040: 87d4 003e 6033 3c3c 93e2 253e c4a2 cbbc
00000050: be69 dc3d 009f d73d 8244 bbbd 2307 2c3c
00000060: ae34 01be 6b1b f9bd d0b3 25be 5191 e8bd
00000070: 8f24 413e 548e fcbd 132e d63d 32b9 163e
00000080: 39b2 1dbe 3606 10be bc11 b73c 2136 d6bd
00000090: 132e 04be 65c1 2ebe b96d 483e c1c7 0e3e
000000a0: 1f34 c8bd a10e 253e 20e5 3e3d 7f62 c43c
000000b0: 185e ab3c 22a4 8b3d 490e 1dbc b843 13bd
000000c0: aeff 2bbe 863d cf3d efb4 463e 5aff cf3d
000000d0: 7397 d23b 7ecc 3c3d 48e9 a4bd 4bd2 fa3d
000000e0: 9709 11be 542e 3dbe 4023 633b 6df4 4d3d
000000f0: 7f90 123e 7cdf 7d3d f709 293e 627c 1fbe
00000100: 69b7 5abe 1e3e 16be 428f edbd 092f 23be
00000110: 0c52 833d 8392 3d3e 35af 243e cb0f f83c
00000120: 8279 54bd 947d 6a3d 57be 9ebd 7b50 26bd
00000130: 05b0 b5bd 1b78 0c3e 1539 353e 31e3 373d
00000140: b203 49be f926 dcbd 06b8 afbd 6734 28be
00000150: 5e5d 8b3d 452a 5cbe e698 1a3e f6be 0e3e
00000160: 125e 51be a688 8d3d 0b4e abbd 2ad3 3abe
00000170: f0de 2abc 47e8 4b3c 463d e03d 6220 f7bd
00000180: b135 4bbe 3a18 f6bc 7859 37be 8443 013e
00000190: 7232 4d3d 1719 d9bd 5099 b13c 404d 153c
000001a0: 5262 013e 3824 9fbb 8c73 1c3c 8019 f1bd
000001b0: 56b3 87bd 4beb 9dbd b9b5 373e 4b3a 133e
000001c0: 90ce 33be 01ba 00be 30ed 0a3e d891 b4bd
000001d0: 34c8 433d 0c0e 0cbd 0051 f03d 3590 4fbe
000001e0: fd29 10bd 7b45 89bd d704 383d 94c9 723d
000001f0: 4df4 07be 3cef 62bd cb2e 413e 6ca1 823d

advantage_hidden_layer.weight_mu f4 [128, 128]
-0.030389177 0.04440943 0.037200116 0.043861903 0.013612002 0.022897221 0.03611296 -0.09557973
-0.00058321655 0.034165688 0.013372144 0.028377095 0.042833067 -0.073612876 -0.048496164 -0.04214386
-0.02888373 0.0054308325 0.01345098 0.03684177 -0.0643943 -0.012318153 0.002760619 0.04823108
-0.06827368 -0.14200966 -0.0007030815 -0.032516852 -0.06381127 0.029202037 -0.1066632 -0.08122914
-0.027923696 -0.04867097 0.06382893 0.057132475 -0.06099159 0.07115762 -0.067082606 -0.0832917
-0.05179166 -0.10241212 0.044870652 -0.020701846 0.08191881 0.050417833 -0.1147571 -0.01223328
-0.060154136 -0.044399377 -0.025469048 -0.013278954 -0.039830424 -0.06017075 -0.068151064 0.009360717
-0.018274251 -0.06122415 0.034852073 -0.10299275 0.030321255 0.050886396 0.04485052 0.018886944
-0.049026944 -0.036649045 -0.06693949 0.055365685 0.013113343 0.0471284 0.083249934 0.023712598
-0.0052047344 -0.04578214 0.023334391 0.011264623 0.026809886 -0.104833074 0.022287993 -0.06582403
-0.10563036 0.033114735 -0.093538165 -0.06762504 -0.09250354 -0.08279265 -0.018077845 0.03463177
-0.1341895 0.064623244 0.088364355 0.059605055 -0.0022970662 -0.1093995 0.052106254 -0.0784603
-0.11342681 -0.10221924 -0.0798589 0.03234734 -0.09671165 -0.09479169 0.028664872 -0.013321362
0.03529884 0.07462713 0.055847816 0.06384414 -0.03300548 -0.013326801 0.013090074 -0.031240772
0.04380857 -0.100122645 -0.12428805 0.04536628 -0.083190165 0.06090489 -0.07357699 -0.010606805
-0.09595541 0.054034367 -0.08255269 0.009826399 -0.08196062 0.07768988 0.006024681 -0.09707658
-0.025174262 -0.04981476 -0.054912526 0.0011741017 0.09027132 -0.086680904 -0.06637316 0.0014708637
0.015147954 -0.04005727 -0.02295681 -0.083182886 0.0042691603 -0.0064789006 0.013337928 -0.0957226
0.07418222 -0.004099548 0.014598407 0.06909403 0.02472201 0.015967203 0.0067616105 0.034263767
0.07397387 -0.13873996 -0.010968603 0.029693857 -0.05270499 -0.0705096 -0.17606768 0.012318676
-0.106575444 -0.032196295 -0.08074241 -0.010834068 0.010939412 -0.084941305 -0.078268826 -0.10751018
0.08143615 -0.09868416 -0.051998682 -0.15000533 -0.018294312 0.06796797 0.020363864 -0.055324048
-0.1415406 -0.04172067 -0.055663563 -0.045897275 -0.043715358 -0.016004674 0.0697949 -0.08932228
-0.012261995 -0.010993548 -0.04869378 0.050316527 0.08539299 -0.04576042 0.032643028 0.05760515
-0.29544434 -0.07592096 -0.076702595 -0.067707 -0.04717421 -0.034396276 0.012982935 0.060881935
-0.18206294 0.028716072 -0.015760273 -0.14233579 -0.01016365 -0.053744417 -0.12883809 -0.029213471
-0.124249764 -0.06273953 0.023830345 -0.01874589 -0.09787723 -0.10789413 -0.030606788 -0.15646136
-0.07218218 -0.021347724 -0.085292235 -0.09085583 0.021458015 -0.049646385 -0.07652063 0.006521228
-0.10985786 0.023049945 -0.021884553 0.06992791 -0.21587552 -0.062430304 0.00698559 -0.016191483
-0.02713997 -0.062132005 -0.11493185 0.06293445 0.021866456 0.019371502 -0.005127378 -0.049267042
-0.03924994 -0.13028201 -0.20073414 -0.06747201 -0.037553556 -0.051800344 0.031236127 0.035538163
-0.047933023 -0.05554936 -0.026866369 -0.024779119 -0.06106998 -0.056796577 0.07645505 -0.088099405
00000000: b9f2 f8bc aae6 353d 265f 183d 8aa8 333d
00000010: e004 5f3c f492 bb3c 2feb 133d 4ebf c3bd
00000020: 00e3 18ba 52f1 0b3d d616 5b3c 1577 e83c
00000030: ba71 2f3d 59c2 96bd eaa3 46bd 0a9f 2cbd
00000040: 929d ecbc 20f5 b13b 8061 5c3c 65e7 163d
00000050: 29e1 83bd 14d2 49bc 80eb 343b f48d 453d
00000060: 12d3 8bbd fb6a 11be 004f 38ba 6430 05bd
00000070: 7caf 82bd 1c39 ef3c 3c72 dabd 775b a6bd
00000080: 3cc0 e4bc 365b 47bd beb8 823d be03 6a3d
00000090: 51d2 79bd 16bb 913d 9b62 89bd d794 aabd
000000a0: 7e23 54bd 72bd d1bd 4aca 373d eb96 a9bc
000000b0: 0dc5 a73d ee82 4e3d c505 ebbd 186e 48bc
000000c0: 2f64 76bd 1fdc 35bd 77a4 d0bc f88f 59bc
000000d0: 3a25 23bd 9b75 76bd c992 8bbd b15d 193c
000000e0: e2b3 95bc 2dc6 7abd 0cc1 0e3d dded d2bd
000000f0: 4864 f83c 416e 503d 2eb5 373d cbb8 9a3c
00000100: 7ad0 48bd 4f1d 16bd 9217 89bd 21c7 623d
00000110: 59d9 563c b609 413d f17e aa3d ec40 c23c
00000120: 7a8c aabb 0e86 3bbd c427 bf3c 418f 383c
00000130: 68a0 db3c b9b2 d6bd 4f95 b63c c0ce 86bd
00000140: bb54 d8bd 51a3 073d f090 bfbd ff7e 8abd
00000150: 7f72 bdbd 318f a9bd fd17 94bc 0bda 0d3d
00000160: f968 09be 3159 843d 5ff8 b43d 6e24 743d
00000170: 608a 16bb d80c e0bd 5e6d 553d cbaf a0bd
00000180: 514c e8bd 5258 d1bd 108d a3bd a57e 043d
00000190: c210 c6bd 2522 c2bd 98d2 ea3c d841 5abc
000001a0: 8495 103d 1cd6 983d aec0 643d b7c0 823d
000001b0: c130 07bd a858 5abc c077 563c a6ec ffbc
000001c0: 9d70 333d 1a0d cdbd bc8a febd fed1 393d
000001d0: 9b5f aabd 6877 793d 88af 96bd 2ac8 2dbc
000001e0: 4584 c4bd 2453 5d3d 6211 a9bd e8fe 203c
000001f0: f8da a7bd df1b 9f3d b06a c53b 16d0 c6bd
00000200: 413a cebc 900a 4cbd f5eb 60bd 51e4 993a
00000210: 2be0 b83d c285 b1bd a7ee 87bd ffc9 c03a
00000220: 202f 783c 1813 24bd ec0f bcbc ca5b aabd
00000230: 50e4 8b3b f54c d4bb 5387 5a3c 360a c4bd
00000240: d9ec 973d 8055 86bb 282e 6f3c 2c81 8d3d
00000250: d085 ca3c a7cd 823c 8090 dd3b 2a58 0c3d
00000260: 9d7f 973d d911 0ebe a8b5 33bc 8840 f33c
00000270: 30e1 57bd 5667 90bd 164b 34be 46d4 493c
00000280: 3a44 dabd 43e0 03bd 475c a5bd 6081 31bc
00000290: 383b 333c b5f5 adbd 684b a0bd 4c2e dcbd
000002a0: ffc7 a63d ec1a cabd 92fc 54bd ff9a 19be
000002b0: f4dd 95bc cb32 8b3d 1ed2 a63c 789b 62bd
000002c0: 05f0 10be 4be3 2abd 7aff 63bd c8fe 3bbd
000002d0: e00e 33bd 3c1c 83bc a1f0 8e3d 99ee b6bd
000002e0: 89e6 48bc 481e 34bc 2173 47bd b418 4e3d
000002f0: 85e2 ae3d 476f 3bbd b2b4 053d 61f3 6b3d
00000300: 7b44 97be 737c 9bbd 4016 9dbd f8a9 8abd
00000310: bf39 41bd 1ce3 0cbd 60b6 543c 565f 793d
00000320: b56e 3abe f83d eb3c b01b 81bc 79c0 11be
00000330: 7085 26bc 1b23 5cbd 22ee 03be 1751 efbc
00000340: a976 febd 957d 80bd db37 c33c fb90 99bc
00000350: db73 c8bd 99f7 dcbd 16bb fabc 6837 20be
00000360: 40d4 93bd 6ce1 aebc b2ad aebd 9f12 babd
00000370: b8c8 af3c 025a 4bbd d9b6 9cbd 06b0 d53b
00000380: 28fd e0bd 3dd3 bc3c 3c47 b3bc 5d36 8f3d
00000390: 790e 5dbe ebb6 7fbd 60e7 e43b 00a4 84bc
000003a0: a454 debc 217e 7ebd 6461 ebbd c7e3 803d
000003b0: 4821 b33c fcb0 9e3c 9003 a8bb 3dcc 49bd
000003c0: 8cc4 20bd a668 05be 408d 4dbe c42e 8abd
000003d0: c2d1 19bd 992c 54bd e8e2 ff3c 7790 113d
000003e0: 6b55 44bd ba87 63bd dc16 dcbc 94fd cabc
000003f0: 8424 7abd 87a3 68bd 7794 9c3d 766d b4bd

advantage_hidden_layer.weight_sigma f4 [128, 128]
0.04227795 0.044194173 0.044194173 0.04726026 0.044194173 0.044194173 0.031266496 0.046899192
0.044194173 0.044194173 0.035233714 0.031063747 0.044194173 0.044194173 0.046144344 0.0471888
0.044194173 0.044194173 0.044194173 0.02914093 0.044194173 0.025170553 0.044194173 0.048862964
0.044194173 -0.0248424 0.044194173 0.044194173 0.044194173 0.044194173 0.052766994 0.042914104
0.008065316 0.01247655 0.039758597 0.044194173 0.044194173 0.03587482 0.044194173 0.059116956
0.044194173 0.037468173 0.044194173 0.0722684 0.044194173 0.044194173 -0.0033960508 0.044194173
0.0013320369 0.044194173 0.03267181 0.044194173 0.10806629 0.041998312 0.044194173 0.03383054
0.04626248 0.044058777 0.044194173 0.056350376 0.044194173 0.043779925 0.044194173 0.03848713
-0.026908323 0.044194173 0.044194173 0.04288519 0.03937561 0.044194173 0.044194173 0.044194173
0.06521918 0.044194173 0.044194173 0.040142324 0.044194173 0.016431777 0.0019313662 0.06432331
0.07887469 0.053059667 0.053501163 0.020615855 -0.0338298 0.016747124 0.03790421 0.057814263
0.01471398 0.044194173 0.044194173 0.049183074 0.044194173 -0.009351352 0.044194173 0.0502149
-0.013509873 0.02882165 0.044194173 0.042890582 0.034777023 0.048981562 0.044194173 0.044194173
0.038189698 0.03785098 0.03399222 0.044194173 0.044194173 0.044194173 0.044194173 0.044194173
0.034591533 0.02021961 0.07363389 0.02980497 0.044194173 0.028884197 0.044194173 0.0349178
0.05277205 0.054528564 -0.050163127 0.044194173 0.044194173 0.044194173 0.044194173 0.037260693
0.032954294 0.044194173 0.044194173 0.032699905 0.06898286 0.044194173 0.03478779 0.041326325
0.044194173 0.044194173 0.10424703 0.13835457 0.044194173 0.06879346 0.03736066 0.049385935
0.044194173 0.044194173 0.044194173 0.048601564 0.044194173 0.030329822 0.044194173 0.06008009
0.044194173 0.0343074 0.044194173 0.044194173 0.044194173 0.044194173 0.008039839 0.042973258
0.05369688 0.013300136 0.041523684 0.044194173 0.044194173 0.042860694 0.044194173 -0.0031706688
0.044194173 0.09152753 0.044194173 -0.021273572 0.044194173 0.044194173 0.05611911 0.044194173
0.04388401 0.044194173 0.017581003 0.044194173 -0.05775688 0.04282712 0.044194173 0.04538742
0.046819482 0.044002414 0.044194173 0.050665658 0.044194173 0.03971225 0.044194173 0.054797605
-0.008545239 0.044194173 0.044194173 0.030963846 0.03437886 0.044194173 0.044194173 0.044194173
0.03534955 0.044194173 0.044194173 0.078539506 0.044194173 0.031138524 -0.054314584 -0.02602488
0.024567345 -0.03158281 0.06622855 0.08080278 0.05238755 0.05021624 0.044194173 0.048882082
0.07145121 0.044194173 0.044194173 0.09118841 0.044194173 0.03748939 0.044194173 0.036630545
-0.029042153 0.042372987 0.044194173 0.04847798 0.0018492176 0.03860095 0.044194173 0.044194173
0.044194173 0.036713645 0.029641524 0.044194173 0.044194173 0.044194173 0.044194173 0.044194173
0.0452391 0.038862336 0.029951267 0.03755814 0.044194173 0.04217717 0.044194173 0.05341321
0.04885588 0.03460875 -0.0009992244 0.044194173 0.044194173 0.044194173 0.044194173 0.053426873
00000000: a52b 2d3d f304 353d f304 353d f993 413d
00000010: f304 353d f304 353d 4c11 003d 5e19 403d
00000020: f304 353d f304 353d 3a51 103d 6679 fe3c
00000030: f304 353d f304 353d da01 3d3d 0b49 413d
00000040: f304 353d f304 353d f304 353d f6b8 ee3c
00000050: f304 353d 7a32 ce3c f304 353d 8824 483d
00000060: f304 353d 4a82 cbbc f304 353d f304 353d
00000070: f304 353d f304 353d 3422 583d b3c6 2f3d
00000080: 6324 043c 726a 4c3c e9d9 223d f304 353d
00000090: f304 353d 7af1 123d f304 353d 9f24 723d
000000a0: f304 353d 3a78 193d f304 353d 7401 943d
000000b0: f304 353d f304 353d 4790 5ebb f304 353d
000000c0: be97 ae3a f304 353d e0d2 053d f304 353d
000000d0: dc51 dd3d 6c06 2c3d f304 353d e491 0a3d
000000e0: ba7d 3d3d fa76 343d f304 353d a7cf 663d
000000f0: f304 353d 9452 333d f304 353d aea4 1d3d
00000100: d86e dcbc f304 353d f304 353d 62a8 2f3d
00000110: 5248 213d f304 353d f304 353d f304 353d
00000120: a291 853d f304 353d f304 353d 476c 243d
00000130: f304 353d ef9b 863c e525 fd3a f1bb 833d
00000140: 0e89 a13d 1855 593d 0924 5b3d 95e2 a83c
00000150: 1e91 0abd 4431 893c 7241 1b3d a6ce 6c3d
00000160: e812 713c f304 353d f304 353d 3174 493d
00000170: f304 353d 6a36 19bc f304 353d 24ae 4d3d
00000180: 8458 5dbc 621b ec3c f304 353d 09ae 2f3d
00000190: 5a72 0e3d e4a0 483d f304 353d f304 353d
000001a0: cd6c 1c3d a109 1b3d 6d3b 0b3d f304 353d
000001b0: f304 353d f304 353d f304 353d f304 353d
000001c0: daaf 0d3d 98a3 a53c 5dcd 963d 8d29 f43c
000001d0: f304 353d 8d9e ec3c f304 353d f805 0f3d
000001e0: 8127 583d 5859 5f3d da77 4dbd f304 353d
000001f0: f304 353d f304 353d f304 353d ab9e 183d
00000200: 15fb 063d f304 353d f304 353d 56f0 053d
00000210: e346 8d3d f304 353d a47d 0e3d cb45 293d
00000220: f304 353d f304 353d 787f d53d d2ac 0d3e
00000230: f304 353d 96e3 8c3d 7e07 193d e848 4a3d
00000240: f304 353d f304 353d f304 353d 6f12 473d
00000250: f304 353d 3f76 f83c f304 353d 8a16 763d
00000260: f304 353d eb85 0c3d f304 353d f304 353d
00000270: f304 353d f304 353d 87b9 033c ba04 303d
00000280: 42f1 5b3d d0e8 593c bd14 2a3d f304 353d
00000290: f304 353d b28e 2f3d f304 353d ffca 4fbb
000002a0: f304 353d c972 bb3d f304 353d ea45 aebc
000002b0: f304 353d f304 353d 27dd 653d f304 353d
000002c0: b8bf 333d f304 353d 0906 903c f304 353d
000002d0: 7a92 6cbd 7d6b 2f3d f304 353d 29e8 393d
000002e0: c9c5 3f3d e03b 343d f304 353d cb86 4f3d
000002f0: f304 353d 50a9 223d f304 353d 7473 603d
00000300: 5501 0cbc f304 353d f304 353d e4a7 fd3c
00000310: d9d0 0c3d f304 353d f304 353d f304 353d
00000320: b1ca 103d f304 353d f304 353d 52d9 a03d
00000330: f304 353d 3816 ff3c f878 5ebd 2132 d5bc
00000340: 7541 c93c fa5c 01bd d6a2 873d ee7b a53d
00000350: 5494 563d 8baf 4d3d f304 353d 9438 483d
00000360: 0355 923d f304 353d f304 353d fdc0 ba3d
00000370: f304 353d 798e 193d f304 353d e909 163d
00000380: cfe9 edbc 4c8f 2d3d f304 353d d990 463d
00000390: 7261 f23a 081c 1e3d f304 353d f304 353d
000003a0: f304 353d 0c61 163d c8d2 f23c f304 353d
000003b0: f304 353d f304 353d f304 353d f304 353d
000003c0: a24c 393d 1d2e 1f3d 5c5c f53c 90d6 193d
000003d0: f304 353d f8c1 2c3d f304 353d cfc7 5a3d
000003e0: 1a1d 483d e8c1 0d3d 68f8 82ba f304 353d
000003f0: f304 353d f304 353d f304 353d 23d6 5a3d

advantage_hidden_layer.bias_mu f4 [128]
-0.10876528 -0.038274743 -0.10931454 -0.13625914 -0.19090125 -0.06783265 -0.08075961 0.22829282
-0.27704874 -0.15205325 -0.019747782 -0.09669059 -0.16352904 -0.098853834 -0.09855536 -0.08719235
-0.00459978 -0.12034652 -0.10693717 -0.100010335 -0.11627872 -0.16549343 -0.12323962 -0.12929195
0.0006212887 -0.12264483 -0.082420796 -0.17691365 -0.12315604 0.00926498 -0.018403998 -0.07580772
-0.011995029 -0.12116674 -0.0931655 -0.047069564 -0.12215014 -0.10804235 0.2203297 -0.121749476
-0.0819674 -0.21843654 -0.08604851 -0.09247335 -0.09357671 -0.043568306 -0.14537016 -0.074813254
-0.10337955 -0.04509746 -0.058242224 -0.21821587 -0.12938094 0.048046056 -0.07147402 -0.0859334
-0.01622082 0.14230002 0.17245153 -0.12141181 -0.09034475 -0.08604584 -0.1340958 -0.1391333
-0.0050385986 -0.1498837 -0.06478116 0.15740427 -0.045597684 -0.10382881 -0.07556139 -0.06998722
-0.111070655 -0.07084383 0.022781925 -0.12232856 -0.12891793 -0.036144897 -0.13304749 -0.07497305
-0.07335424 -0.14621969 -0.04119338 -0.08360549 0.27616242 -0.039851338 -0.12832768 -0.041292794
-0.050445367 -0.0975737 -0.17269674 -0.2670328 -0.08501262 -0.2665361 -0.08552078 -0.012415218
-0.14739025 -0.07351252 -0.12730299 -0.10093416 -0.0137239 -0.022943282 -0.0465132 0.31696942
-0.07714296 -0.060868975 -0.066302545 -0.13255438 -0.09652077 -0.03844272 -0.07339346 -0.1034308
-0.24673636 -0.15192826 -0.23969984 -0.1412118 -0.07907092 -0.10259686 0.0072299154 -0.1192659
0.27232152 -0.04218621 -0.10517332 -0.0575622 0.13830674 -0.018364336 -0.15054655 -0.11412062
00000000: 55c0 debd fac5 1cbd 4de0 dfbd 8487 0bbe
00000010: 9e7b 43be d8eb 8abd 4b65 a5bd 98c5 693e
00000020: 55d9 8dbe d9b3 1bbe 1ac6 a1bc b705 c6bd
00000030: 2874 27be e173 cabd 65d7 c9bd e791 b2bd
00000040: c0b9 96bb 3c78 f6bd e001 dbbd 38d2 ccbd
00000050: 8a23 eebd 1c77 29be 0e65 fcbd 1c65 04be
00000060: fbdd 223a 362d fbbd 3ccc a8bd da28 35be
00000070: 3c39 fcbd 25cc 173c fbc3 96bc 1441 9bbd
00000080: cc86 44bc 4526 f8bd 8ecd bebd 04cc 40bd
00000090: da29 fabd 4f45 ddbd 1c9e 613e ca57 f9bd
000000a0: 86de a7bd d4ad 5fbe 343a b0bd ab62 bdbd
000000b0: 25a5 bfbd ae74 32bd eadb 14be b137 99bd
000000c0: a8b8 d3bd 1db8 38bd 668f 6ebd fb73 5fbe
000000d0: 707c 04be f1cb 443d f960 92bd dafd afbd
000000e0: 86e1 84bc 19b7 113e 2297 303e c1a6 f8bd
000000f0: ab06 b9bd cd38 b0bd 6950 09be f678 0ebe
00000100: d41a a5bb 1d7b 19be fcab 84bd 962e 213e
00000110: a3c4 3abd 33a4 d4bd eebf 9abd 7655 8fbd
00000120: 0379 e3bd 9216 91bd 29a1 ba3c 6587 fabd
00000130: 1003 04be ac0c 14bd 9a3d 08be 788b 99bd
00000140: bf3a 96bd 9dba 15be 64ba 28bd 5b39 abbd
00000150: 2965 8d3e 283b 23bd 5568 03be a222 29bd
00000160: cd9f 4ebd b8d4 c7bd 6ad7 30be 86b8 88be
00000170: 191b aebd 6b77 88be 8525 afbd 3369 4bbc
00000180: 78ed 16be bb8d 96bd b75b 02be 92b6 cebd
00000190: 35da 60bc 8df3 bbbc a084 3ebd d149 a23e
000001a0: 21fd 9dbd bf51 79bd a1c9 87bd 56bc 07be
000001b0: aeac c5bd 1d76 1dbd 4f4f 96bd 87d3 d3bd
000001c0: 75a8 7cbe 1593 1bbe e073 75be d399 10be
000001d0: efef a1bd 4d1e d2bd ede8 ec3b ae41 f4bd
000001e0: ba6d 8b3e 73cb 2cbd 1c65 d7bd 57c6 6bbd
000001f0: 48a0 0d3e ce70 96bc e028 1abe 12b8 e9bd

advantage_hidden_layer.bias_sigma f4 [128]
-0.017202133 0.030627688 0.01829594 0.013035488 0.009766431 0.039824456 0.022485757 0.009686546
0.013109912 -0.03935932 0.024234803 -0.021652225 0.014391857 -0.0025464203 0.00883887 0.03901768
0.009002529 0.03325825 -0.05607706 -0.008179689 -0.0047868276 -0.034153625 0.04896061 -0.00439957
0.01515893 0.013908278 0.009526798 0.048177116 -0.03782833 -0.011363004 -0.011080691 -0.0011972805
0.003906992 0.03610689 0.027337873 0.0050730836 0.035589077 0.0064721457 0.006155225 -0.0011579087
0.063228875 0.06001513 0.006814111 0.043255407 0.04368971 0.0064971275 0.00011289957 0.008346937
0.059429713 0.0010691114 -0.03338153 0.055860724 0.039184663 -0.018668933 -0.00054813194 -0.016533284
-1.657099e-05 0.00073592993 0.015838409 0.01388695 0.0036506944 -0.005968096 -0.10928844 0.002461502
-0.016857065 0.038724583 -0.006103504 -0.007916746 -0.008105258 -0.010982371 0.0052787834 0.0020832948
-0.023913715 -0.005811038 0.025935432 0.04288829 0.04632079 0.008938938 0.074515775 0.005165361
0.022284582 0.0011948532 0.010508857 -0.023812227 -0.0076765283 -0.0005951226 -0.018482491 0.012664754
0.016285507 -0.010601644 -0.007598084 -0.08034858 -0.00537188 0.0348564 0.030211514 0.0068576126
-0.0062396717 -0.004625043 0.009187452 0.035804875 -0.004605212 -0.00038799425 -0.01421682 -0.0031921954
0.026612602 -0.005938978 -0.0048900153 -0.041623812 0.035248697 -0.013907836 0.054960247 -0.013763362
-0.017955273 0.026065944 0.13976546 -0.0015451763 0.0006139854 0.008675563 -0.008715212 0.06079964
-0.018138286 -0.018945409 0.049329147 0.030501327 -0.005028784 -0.0040121595 0.015832227 -0.013969568
00000000: 7deb 8cbc ebe6 fa3c 5ee1 953c cd92 553c
00000010: 6103 203c f81e 233d 0d34 b83c 52b4 1e3c
00000020: f5ca 563c 3d37 21bd 1188 c63c 0260 b1bc
00000030: d3cb 6b3c d8e1 26bb e8d0 103c 01d1 1f3d
00000040: 587f 133c ce39 083d 0fb1 65bd 1a04 06bc
00000050: d2da 9cbb ace4 0bbd ec8a 483d 452a 90bb
00000060: 295d 783c 8cdf 633c 4916 1c3c 5e55 453d
00000070: e1f1 1abd e52b 3abc c98b 35bc 11ee 9cba
00000080: 3906 803b d1e4 133d adf3 df3c 1c3c a63b
00000090: dac5 113d 4b14 d43b c5b1 c93b f8c4 97ba
000000a0: 247e 813d 6dd2 753d e848 df3b 952c 313d
000000b0: fbf3 323d dbe5 d43b 7fc4 ec38 97c1 083c
000000c0: 926c 733d 6d21 8c3a 12bb 08bd 37ce 643d
000000d0: 1980 203d 97ef 98bc 83b0 0fba cf70 87bc
000000e0: ee01 8bb7 6ceb 403a 8dbf 813c 1786 633c
000000f0: 7d40 6f3b 0590 c3bb 9ed2 dfbd 2751 213b
00000100: d417 8abc ab9d 1e3d e7ff c7bb 3db5 01bc
00000110: ebcb 04bc 67ef 33bc a5f9 ac3b e387 083b
00000120: b2e6 c3bc 856a bebb 8b76 d43c a2ab 2f3d
00000130: deba 3d3d a074 123c ba9b 983d 3042 a93b
00000140: 288e b63c 9f9c 9c3a 572d 2c3c dc11 c3bc
00000150: 638b fbbb 0002 1cba 9868 97bc d47f 4f3c
00000160: 2f69 853c 85b2 2dbc 59f9 f8bb cc8d a4bd
00000170: 9806 b0bb 96c5 0e3d 237e f73c d3b5 e03b
00000180: 2976 ccbb ac8d 97bb f786 163c 22a8 123d
00000190: 51e7 96bb b56b cbb9 aaed 68bc 2734 51bb
000001a0: ac02 da3c c29b c2bb 6c3c a0bb bb7d 2abd
000001b0: f060 103d b1dd 63bc ff1d 613d b97f 61bc
000001c0: f016 93bc 3f88 d53c ad1e 0f3e 8387 caba
000001d0: ddf3 203a f323 0e3c 40ca 0ebc 0b09 793d
000001e0: be96 94bc 6733 9bbc 5c0d 4a3d ebdd f93c
000001f0: 7fc8 a4bb 6f78 83bb 96b2 813c 9de0 64bc

advantage_hidden_layer.weight_epsilon f4 [128, 128]
0.6282466 0.71611154 0.65170383 -1.2337781 1.0366007 -0.6430307 -1.681101 -0.3362757
-1.132032 0.4347903 1.6891167 0.4005599 -0.67255753 -0.6720743 0.96714026 0.9445501
0.57455385 1.3892556 1.3743029 1.054911 1.2956342 -1.038352 -1.3774463 -1.102387
0.86231947 -1.0952009 -0.70733523 1.6337582 1.5581949 -0.09592938 -1.1565338 1.5469586
-0.7201002 -1.6108481 -0.9572933 -0.6386656 -1.2554868 -0.39767462 0.32259056 1.2142879
-0.72462523 -0.70582056 1.7270904 1.6224142 0.5474599 1.2960364 1.122587 -0.8223376
-0.49879876 0.4675152 -0.6051131 -0.69689137 0.5607384 0.8247792 -0.555406 -0.8656777
1.5461719 1.2173105 1.1257799 -1.6152729 1.2885716 -1.3161379 -0.9610063 0.43187764
-1.3250686 0.209479 -1.0327687 -0.6624984 1.0295757 1.7566954 1.6426948 0.18512756
1.3450565 -1.0834389 0.9547402 1.3155297 -0.4494932 1.2530464 1.195187 -0.13650294
1.3079656 -1.3150797 1.3677719 0.49198338 -0.70121366 -1.6184194 -0.7619099 0.58427626
-1.6708772 0.07002576 -1.3847408 0.6684278 1.2402881 1.149997 0.7969661 -0.20300555
-0.8987878 -1.0886132 -1.2713383 -0.87430847 -0.6356943 -1.6420977 -1.5850096 0.7100328
-1.1596394 0.9660081 0.44187444 1.1934061 -1.4242945 0.19332094 -0.47351518 0.9781672
0.9170101 -1.6617697 -1.3670369 0.5028691 0.54367614 0.8159016 -1.714996 0.62462753
-1.510739 -1.1051244 1.3852004 1.512686 1.3453455 -0.92046815 -1.1274314 0.18548436
-0.59190947 -0.67469233 -0.61401 1.1624175 -0.9766447 0.6058384 1.5838677 0.31682587
1.0665565 -0.40964246 -1.5914198 -0.3773919 0.63365746 0.6332022 -0.91120183 -0.8899182
-0.54132223 -1.3089025 -1.2948146 -0.99389607 -1.220696 0.97829473 1.2977762 1.038626
-0.81244373 1.0318556 0.6664237 -1.5392632 -1.4680705 0.090380915 1.0896411 -1.457484
0.6784503 1.5176783 0.9019244 0.6017258 1.1828706 0.37467352 -0.30393225 -1.1440547
0.6827136 0.6649966 -1.6271971 -1.5285754 -0.51579535 -1.2210748 -1.0576577 0.77477443
0.46994874 -0.44047457 0.57011396 0.65658385 -0.5283058 -0.7770748 0.5232818 0.8156077
-1.4567429 -1.1469024 -1.0606658 1.521847 -1.214042 1.2400137 0.9054226 -0.40689826
1.2484279 -0.19736294 0.97303444 0.62418014 -0.970026 -1.6550899 -1.547683 -0.17441995
-1.2672598 1.0207739 -0.89951897 -1.2394408 0.42349496 -1.1805714 -1.1260586 0.12860774
-1.2323142 1.2390168 -1.2886612 -0.46352756 0.66065615 1.5248116 0.71784174 -0.55048233
1.5742353 -0.06597554 1.3046488 -0.6297666 -1.1685511 -1.0834824 -0.75087035 0.19126391
0.84680283 1.0256488 1.1978054 0.82373935 0.5989264 1.5471205 1.4933342 -0.6689652
1.092567 -0.91013515 -0.41631687 -1.1243806 1.3419147 -0.18213946 0.44612753 -0.921591
-0.8639712 1.5656546 1.2879689 -0.4737837 -0.51223046 -0.7687106 1.6158023 -0.58849967
1.4233593 1.041205 -1.3050817 -1.4251938 -1.267532 0.86722916 1.0622219 -0.17475612
00000000: c5d4 203f 1653 373f 10d6 263f 71ec 9dbf
00000010: 55af 843f a99d 24bf 512e d7bf 542c acbe
00000020: 6de6 90bf d69c de3e fa34 d83f 3016 cd3e
00000030: bb2c 2cbf 100d 2cbf 8196 773f 09ce 713f
00000040: f615 133f 21d3 b13f 28e9 af3f 5307 873f
00000050: 57d7 a53f b8e8 84bf 2950 b0bf 041b 8dbf
00000060: f8c0 5c3f 8b2f 8cbf ec13 35bf fd1e d13f
00000070: ee72 c73f 9f76 c4bd 4d09 94bf bd02 c63f
00000080: 7d58 38bf 4530 cebf 2c11 75bf 977f 23bf
00000090: cbb3 a0bf 029c cbbe 972a a53e c96d 9b3f
000000a0: 0a81 39bf a8b0 34bf 4c11 dd3f 45ab cf3f
000000b0: 5526 0c3f 85e4 a53f eeb0 8f3f b884 52bf
000000c0: 8d62 ffbe 275e ef3e b1e8 1abf 7967 32bf
000000d0: 8d8c 0f3f bb24 533f 162f 0ebf 0e9d 5dbf
000000e0: f6e8 c53f d5d0 9b3f 8e19 903f 43c1 cebf
000000f0: eaef a43f 3577 a8bf 8204 76bf 111f dd3e
00000100: d99b a9bf aa81 563e c431 84bf 7f99 29bf
00000110: 23c9 833f 65db e03f d343 d23f 1492 3d3e
00000120: d02a ac3f 20ae 8abf db69 743f 4763 a83f
00000130: f923 e6be d363 a03f e3fb 983f 6dc7 0bbe
00000140: 6b6b a73f 8854 a8bf 2613 af3f 3fe5 fb3e
00000150: bd82 33bf 5e28 cfbf 870c 43bf 2193 153f
00000160: 4edf d5bf aa69 8f3d 303f b1bf 161e 2b3f
00000170: c3c1 9e3f 1a33 933f f805 4c3f b0e0 4fbe
00000180: f516 66bf ad57 8bbf 37bb a2bf aed2 5fbf
00000190: ddbc 22bf 4230 d2bf 98e1 cabf b6c4 353f
000001a0: 106f 94bf 4f4c 773f 5e3d e23e 88c1 983f
000001b0: 484f b6bf edf5 453e 9570 f2be 2a69 7a3f
000001c0: 2dc1 6a3f dfb4 d4bf 11fb aebf 08bc 003f
000001d0: 5c2e 0b3f edde 503f fd84 dbbf 97e7 1f3f
000001e0: e55f c1bf b774 8dbf 3f4e b13f b29f c13f
000001f0: 4834 ac3f cda3 6bbf ac4f 90bf 9def 3d3e
00000200: 6187 17bf a3b8 2cbf c22f 1dbf 19ca 943f
00000210: 6305 7abf 3a18 1b3f 2dbc ca3f 0037 a23e
00000220: ec84 883f a8bc d1be a5b3 cbbf 8339 c1be
00000230: 6037 223f 8a19 223f 8644 69bf aed1 63bf
00000240: 1894 0abf 1e8a a7bf 7cbc a5bf f96f 7ebf
00000250: c43f 9cbf 8671 7a3f 881d a63f b2f1 843f
00000260: 50fc 4fbf d813 843f be9a 2a3f 9406 c5bf
00000270: bce9 bbbf a119 b93d 5c79 8b3f d68e babf
00000280: ebae 2d3f 4843 c23f 84e4 663f b40a 1a3f
00000290: 4e68 973f 35d5 bf3e 029d 9bbe 6270 92bf
000002a0: 52c6 2e3f 383d 2a3f ff47 d0bf 5ca8 c3bf
000002b0: 2a0b 04bf 2e4c 9cbf 5461 87bf 9e57 463f
000002c0: 1f9d f03e e285 e1be fdf2 113f e115 283f
000002d0: 0d3f 07bf 60ee 46bf ccf5 053f abcb 503f
000002e0: 8d76 babf b3cd 92bf e6c3 87bf e2cb c23f
000002f0: ba65 9bbf c5b8 9e3f c7c9 673f f854 d0be
00000300: 7ccc 9f3f 8319 4abe c918 793f 45ca 1f3f
00000310: a053 78bf fcd9 d3bf 7a1a c6bf 259b 32be
00000320: 9235 a2bf b8a8 823f e046 66bf ffa5 9ebf
00000330: 55d4 d83e f71c 97bf b022 90bf bfb1 033e
00000340: 79bc 9dbf 1a98 9e3f daf2 a4bf 7c53 edbe
00000350: c320 293f 072d c33f 7ac4 373f 69ec 0cbf
00000360: 8b80 c93f 2f1e 87bd bbfe a63f 6238 21bf
00000370: 1593 95bf 8daf 8abf 0a39 40bf b0da 433e
00000380: 12c8 583f 7648 833f b051 993f 95e0 523f
00000390: 3e53 193f 0b08 c63f 9325 bf3f 4e41 2bbf
000003a0: 3cd9 8b3f 9efe 68bf 7c27 d5be b4eb 8fbf
000003b0: dcc3 ab3f c482 3abe d46a e43e 63ed 6bbf
000003c0: 372d 5dbf 5f67 c83f 2adc a43f c793 f2be
000003d0: 8921 03bf 38ca 44bf 9cd2 ce3f eaa7 16bf
000003e0: a330 b63f 3546 853f eb0c a7bf c06c b6bf
000003f0: 7d3e a2bf bb02 5e3f e3f6 873f 45f3 32be

advantage_hidden_layer.bias_epsilon f4 [128]
1.2210814 -1.1504552 -1.25829 -1.0365459 0.56664884 0.5564979 -0.9492925 0.80595905
-1.2710184 -0.34903044 0.93649817 1.33907 1.2490673 -1.5191723 1.1789292 -0.2522993
-0.6599711 0.9737453 1.7666035 0.8711133 -0.73976964 -0.53240204 -1.099205 0.824786
1.6346318 -0.9770634 -0.5744074 0.63686633 -0.7874443 -0.9730743 -0.5331577 0.7952655
-0.31431744 -1.2824452 -0.27605608 0.5765535 -0.8215188 -1.0665207 -0.71850306 -0.38389552
0.5720738 0.6249301 0.6153482 -0.65547216 -0.9807083 0.7503777 -0.34415245 0.8143365
1.338894 -0.61581504 1.2208415 0.46745554 -0.34369648 0.9997173 -1.2901044 0.8073902
1.1675726 0.7837645 1.0360334 0.9965975 0.62267286 1.3240969 -1.2945166 0.8222744
-0.6870734 -1.5120444 0.50703394 0.7819881 -1.5650887 -0.6505514 -1.3487774 1.1519626
1.0861146 -0.9527484 -1.1635764 -0.74684757 -0.57810175 1.239256 -1.1855369 1.0776204
0.85897475 -0.290026 0.9028877 -1.1987839 -0.84051585 1.62381 -1.2844528 -0.67568713
0.0722466 -1.2535334 -0.8344372 -0.6319267 -0.48142058 0.54820156 -0.7162388 -1.3572987
-0.833993 0.7313839 -0.18384823 -0.19657223 -1.0065408 0.9890297 -0.8727493 0.87208855
-1.303834 0.31885833 0.4768304 0.8968808 1.0211983 -0.8066953 0.7290264 -1.0352341
1.0524479 -1.1398532 -0.5114132 0.9613565 0.509189 0.2788369 1.0195936 0.7288039
0.5991917 0.61576575 1.3610184 -1.2854049 0.94552267 -0.72502637 -0.9755833 -0.85310715
00000000: 654c 9c3f 1e42 93bf a60f a1bf 89ad 84bf
00000010: e60f 113f a576 0e3f d504 73bf 5553 4e3f
00000020: bbb0 a2bf 1eb4 b2be 58be 6f3f a566 ab3f
00000030: 70e1 9f3f 3d74 c2bf 27e7 963f 602d 81be
00000040: def3 28bf 5f47 793f 1020 e23f 4801 5f3f
00000050: 8b61 3dbf 804b 08bf c0b2 8cbf 2d25 533f
00000060: 9d3b d13f d420 7abf 5d0c 13bf ac09 233f
00000070: f395 49bf 661b 79bf 067d 08bf 8596 4b3f
00000080: 37ee a0be 2a27 a4bf 3957 8dbe 0399 133f
00000090: 0e4f 52bf c083 88bf d1ef 37bf f48d c4be
000000a0: 6e73 123f 6bfb 1f3f 7687 1d3f 06cd 27bf
000000b0: b30f 7bbf c118 403f c034 b0be 5b78 503f
000000c0: e160 ab3f 0ea6 1dbf 8944 9c3f 5556 ef3e
000000d0: fcf8 afbe 79ed 7f3f 2422 a5bf 20b1 4e3f
000000e0: 0573 953f caa4 483f be9c 843f 0421 7f3f
000000f0: 7d67 1f3f 027c a93f b8b2 a5bf 9380 523f
00000100: 0be4 2fbf ac8a c1bf facc 013f 5f30 483f
00000110: d454 c8bf 898a 26bf bda4 acbf 8373 933f
00000120: ce05 8b3f 52e7 73bf 12f0 94bf 6731 3fbf
00000130: 7afe 13bf f19f 9e3f acbf 97bf 77ef 893f
00000140: c5e5 5b3f 4a7e 94be a623 673f c071 99bf
00000150: 0c2c 57bf 02d9 cf3f f368 a4bf d5f9 2cbf
00000160: 07f6 933d c873 a0bf ad9d 55bf f3c5 21bf
00000170: c27c f6be f056 0c3f 6d5b 37bf f7bb adbf
00000180: 9180 55bf fa3b 3b3f b642 3cbe 3b4a 49be
00000190: 54d6 80bf 0d31 7d3f 806c 5fbf 3241 5f3f
000001a0: 08e4 a6bf 6641 a33e 1d23 f43e fb99 653f
000001b0: a0b6 823f 9583 4ebf 79a1 3a3f 8d82 84bf
000001c0: 9db6 863f b6e6 91bf faeb 02bf 761b 763f
000001d0: 365a 023f b6c3 8e3e 0b82 823f e492 3a3f
000001e0: a164 193f d3a2 1d3f da35 ae3f 2688 a4bf
000001f0: c60d 723f 549b 39bf d4bf 79bf 3b65 5abf

advantage_layer.weight_mu f4 [255, 128]
-0.058037326 -0.06368334 -0.08741078 -0.092562445 -0.07879885 -0.0969765 0.08058761 -0.07473273
0.073254965 0.0014233366 -0.041709147 0.052861616 -0.018362727 -0.08566369 -0.00083303906 0.053145822
-0.16271414 -0.003129281 -0.02100048 0.028688528 0.025024705 -0.008430141 0.10234538 0.046953082
0.096863545 -0.062010966 -0.14869715 0.06838157 -0.10020883 -0.4302137 -1.05713 0.03161225
-0.055438463 -0.10051803 -0.13115783 -0.11952131 -0.059678458 -0.07080278 -0.6912617 -0.051390737
-0.0057427604 -0.028040156 -0.11750235 -0.018545676 -0.051470894 -0.03521029 -0.05004225 -0.0012410404
0.0842594 -0.050819512 -0.41649047 -0.016020501 0.046559196 -0.73111045 0.009327729 0.0690075
0.00076157093 -0.5402855 -0.821894 -0.095159 0.034259327 0.08180795 0.009411715 0.04181764
-0.064687386 -0.113540895 -0.026321938 -0.54522806 -0.020997334 -0.050349455 -0.015018367 -0.034039166
-0.054247066 -0.04018761 -0.06558585 -0.061315503 0.068074785 -0.124792255 0.11116575 0.07836676
-0.0071924943 -0.025150334 0.18169044 -0.15533242 -0.12943289 0.010813333 -0.22246994 -0.03770644
0.04011869 -0.019728756 -0.03370305 0.0077361986 0.04034633 -0.029422475 0.007795797 0.05972435
-0.05322384 -0.13473009 0.06290202 0.044925813 -0.026981518 -0.025553389 -0.08567614 -0.22766727
-0.25866875 0.056113485 0.08677207 -0.04234013 -0.04172411 -0.50538373 0.02289398 -0.019800868
-0.028507829 -0.02173581 0.025401993 -0.120281264 0.013417779 -0.026481858 -0.031280514 -0.075268835
-0.6914529 -0.06059208 0.0009795773 -0.08200664 -0.4961097 -0.062123157 -0.07371627 -0.056998406
-0.079415604 0.0684695 0.077221796 0.041267328 -0.0008823613 0.025058344 0.013019966 0.5354711
-0.7621479 -0.054412946 -0.08124211 -0.03830629 -0.0010129431 0.068053365 -0.09678377 0.029756412
-0.15087552 -0.035763573 0.035280757 0.0105207 -0.14946012 0.098203965 0.028423797 -0.028639272
0.11022876 0.0717808 0.025851144 -0.017632544 -0.10066167 0.7440158 0.59010696 0.045032058
0.09146375 -0.01150314 0.017739465 0.01955114 0.06012219 0.050700583 -0.58842623 -0.111284226
0.07546555 -0.0636877 0.027996765 0.044465873 0.04430993 0.015009562 -0.016506469 0.0641918
-0.024946349 0.018034857 -0.20900263 -0.060537983 -0.05437268 0.43991858 0.03954751 0.0038076479
0.106825255 0.37678197 0.7126445 -0.16069719 0.028933953 0.04282676 -0.05181699 -0.008328149
-0.28325692 0.10368547 -0.1024876 -0.12107826 -0.052780356 -0.05594329 -0.20918822 -0.033559985
-0.08570241 0.0025939883 -0.07475604 -0.033283833 0.007938882 -0.057983648 0.038118463 0.09426814
-0.07974325 0.7037578 0.040413376 0.011014167 0.77041715 0.039629363 0.06875102 0.023381233
0.09086327 -0.014278283 -0.04940347 -0.0917512 0.045862857 0.39038226 -0.0042894003 -0.018344931
0.017761562 0.015480925 0.009481178 -0.07486911 -0.08552824 0.17002113 -0.015442448 0.64341927
-0.32729864 -0.06794451 -0.06590064 -0.007496841 0.265518 -0.40369084 -0.09349745 0.03375454
-0.045312658 0.0037484646 0.037413683 -0.07673694 0.04462142 0.024235632 0.035948444 -0.18457755
-0.48486492 -0.04386307 0.008482326 0.038742077 0.20585683 -0.019152194 -0.019091533 -0.03819341
00000000: 8cb8 6dbd 696c 82bd 6c04 b3bd 6191 bdbd
00000010: 4b61 a1bd 9d9b c6bd 1e0b a53d 790d 99bd
00000020: b306 963d 408f ba3a 36d7 2abd 6c85 583d
00000030: 6e6d 96bc 7270 afbd 4e60 5aba 6faf 593d
00000040: 899e 26be a014 4dbb 3309 acbc 3404 eb3c
00000050: 9c00 cd3c 931e 0abc 749a d13d e051 403d
00000060: 6560 c63d 36ff 7dbd 1144 18be a30b 8c3d
00000070: 493a cdbd f844 dcbe 0950 87bf d97b 013d
00000080: 7113 63bd 66dc cdbd 3d4e 06be 97c7 f4bd
00000090: 6671 74bd 0c01 91bd 87f6 30bf 187f 52bd
000000a0: c42d bcbb 78b4 e5bc 12a5 f0bd 1aed 97bc
000000b0: 25d3 52bd aa38 10bd 1af9 4cbd 68aa a2ba
000000c0: 3190 ac3d 1f28 50bd 3d3e d5be 6d3d 83bc
000000d0: dbb4 3e3d 0e2a 3bbf 55d3 183c ce53 8d3d
000000e0: 29a4 473a 2750 0abf a567 52bf b9e2 c2bd
000000f0: 8253 0c3d ed8a a73d 9833 1a3c f948 2b3d
00000100: d27a 84bd 2188 e8bd 1ba1 d7bc 1194 0bbf
00000110: 9a02 acbc 3b3b 4ebd 990f 76bc a76c 0bbd
00000120: 2c32 5ebd c39b 24bd e051 86bd f725 7bbd
00000130: cb6a 8b3d 1593 ffbd deaa e33d c07e a03d
00000140: 04af ebbb 1308 cebc 0f0d 3a3e 760f 1fbe
00000150: 0e8a 04be 682a 313c 29cf 63be 1172 1abd
00000160: 7f53 243d 339e a1bc 360c 0abd f07f fd3b
00000170: 3142 253d 6707 f1bc e373 ff3b 85a1 743d
00000180: 3e01 5abd aff6 09be c6d2 803d 2104 383d
00000190: 5808 ddbc 5755 d1bc f976 afbd 9c21 69be
000001a0: 3b70 84be 41d7 653d 8eb5 b13d d86c 2dbd
000001b0: e6e6 2abd d460 01bf 288c bb3c 6e35 a2bc
000001c0: 4089 e9bc 4c0f b2bc d717 d03c 0656 f6bd
000001d0: 3ed6 5b3c 7bf0 d8bc ff1f 00bd 8c26 9abd
000001e0: 0f03 31bf 672f 78bd 2965 803a 19f3 a7bd
000001f0: 1702 febe da74 7ebd 8ef8 96bd 2977 69bd
00000200: a6a4 a2bd bd39 8c3d 7626 9e3d ee07 293d
00000210: 444e 67ba 2847 cd3c b251 553c a214 093f
00000220: 201c 43bf 1ce0 5ebd 4362 a6bd 0ee7 1cbd
00000230: bbc4 84ba 905f 8b3d 9236 c6bd b8c3 f33c
00000240: 1d7f 1abe d37c 12bd 8e82 103d 045f 2c3c
00000250: 130c 19be 291f c93d 06d9 e83c e89c eabc
00000260: 9ebf e13d d001 933d c7c5 d33c 2072 90bc
00000270: b527 cebd d277 3e3f 4011 173f 8973 383d
00000280: 5951 bb3d ab77 3cbc 5b52 913c b629 a03c
00000290: af42 763d 6aab 4f3d 1aa3 16bf fce8 e3bd
000002a0: af8d 9a3d b26e 82bd 7959 e53c d921 363d
000002b0: 547e 353d aaea 753c 9338 87bc fe76 833d
000002c0: 495c ccbc d6bd 933c c904 56be adf6 77bd
000002d0: e3b5 5ebd 023d e13e 92fc 213d bb89 793b
000002e0: 33c7 da3d 91e9 c03e df6f 363f ce8d 24be
000002f0: e606 ed3c 1d6b 2f3d 0d3e 54bd ca72 08bc
00000300: 0d07 91be 0c59 d43d 05e5 d1bd e1f7 f7bd
00000310: 3730 58bd cb24 65bd 7035 56be 3276 09bd
00000320: bf84 afbd e7ff 293b b219 99bd a154 08bd
00000330: 1612 023c 4380 6dbd 1b22 1c3d a80f c13d
00000340: 6e50 a3bd 7929 343f 7f88 253d c474 343c
00000350: 0f3a 453f 6652 223d 56cd 8c3d 008a bf3c
00000360: 8616 ba3d 76ef 69bc 4b5b 4abd 0ee8 bbbd
00000370: b1da 3b3d 2fe0 c73e 198e 8cbb 1c48 96bc
00000380: b280 913c b5a3 7d3c f156 1b3c fa54 99bd
00000390: 6e29 afbd 051a 2e3e 5202 7dbc 20b7 243f
000003a0: b093 a7be 7e26 8bbd eaf6 86bd 0fa8 f5bb
000003b0: faf1 873e 91b0 cebe 977b bfbd 3342 0a3d
000003c0: c499 39bd cda8 753b 173f 193d 4228 9dbd
000003d0: f3c4 363d ce89 c63c ad3e 133d e601 3dbe
000003e0: 3740 f8be c3a9 33bd 74f9 0a3c 03b0 1e3d
000003f0: 22cc 523e 10e5 9cbc d965 9cbc b170 1cbd

advantage_layer.weight_sigma f4 [255, 128]
0.06094449 0.018423188 0.06788929 0.035494484 0.056579307 -0.009707742 0.040272005 0.06910567
0.07675043 0.0486413 0.025731007 -0.0045136316 0.035176452 0.06967472 0.07810899 0.058834806
0.064106 0.007883438 0.047539297 0.06559091 0.0076804482 0.046731222 0.10638069 0.045504
0.0994963 0.054427464 0.019519817 0.047096703 0.04337531 0.11494476 0.027158123 0.038783316
0.040616434 0.07470762 0.045087133 0.03890332 0.035102207 0.04668175 0.08295824 0.047233973
-0.0058770175 -0.019380841 0.055324506 0.044588186 0.040281072 0.05605493 0.0643069 0.06251461
0.04647328 0.0969911 0.010522927 0.084990285 0.00528544 0.15797387 0.04270982 0.04425491
0.04554501 0.14929734 0.033786003 0.03308432 0.07130873 0.064992815 0.068283305 0.039799534
0.106667824 0.032853786 0.043511312 0.070573926 0.04008386 0.05704753 0.07369239 0.031611305
0.022315832 0.063199975 0.014288894 0.04135197 0.023506315 0.01634767 0.15447216 0.03427418
0.03415789 0.13501787 0.033873316 0.048613388 0.066987574 0.0351663 0.06302855 0.020225251
0.03628488 0.042273678 0.06365296 0.032561347 0.033003867 0.058980756 0.040057205 0.032008044
0.033210453 0.08026788 0.035080057 0.057546984 0.029976716 0.051321615 0.05384945 0.06125137
0.037349604 0.0431072 0.051190116 0.037490655 0.044774357 0.03253342 0.039011262 0.06860328
0.054608393 0.040853035 0.011825997 0.041240256 0.03791057 0.034755506 0.046316564 0.028352536
-0.00054693496 0.026190523 0.046925087 0.041571975 0.13538378 0.029896108 0.047708996 0.03942108
0.041888703 0.15509987 0.066445485 0.015584055 0.078340754 0.051555533 0.0039659073 0.14155151
-0.019994926 0.03065034 0.033439826 0.114196666 0.042381145 0.01447537 0.02955606 0.022608602
-0.009680136 0.038716823 0.06931307 0.053494044 -0.013961907 0.03810761 0.021089325 0.041844357
0.20165984 0.05522461 0.07539213 0.050978553 0.06989459 0.046023827 0.030507877 0.066838495
0.044924594 0.06408683 0.106606826 0.031909257 0.020611066 0.07644833 -0.0012793232 0.048255
0.027203875 0.08296967 0.044016827 0.025785148 0.07753485 0.13409273 0.07223223 0.048704572
0.05269488 0.07893336 -0.011976304 0.10828515 0.033777203 -0.07349951 0.00974698 0.0526608
0.035258144 -0.15774874 -0.061242424 -0.14107132 0.049461804 0.008086108 -0.14585581 0.0426269
-0.0022011523 0.059172332 0.049864713 0.10157566 0.02947387 0.05268578 0.055622198 0.011231745
0.0819543 0.045791537 0.04927841 0.017869394 0.072495386 0.12423409 0.101762824 0.029604452
0.06784682 -0.11577822 0.092893034 0.0039035862 0.053034455 0.11921052 0.034865618 0.0637193
0.11346603 0.053818587 0.020521961 -0.09491659 0.031175345 -0.03826294 0.10532159 0.0048576477
0.046032306 0.052487217 0.015119447 0.101095945 0.06344573 0.054263193 0.058382325 -0.019854201
0.051870674 0.054997206 0.041693605 0.043376394 -0.08250611 0.11219059 0.19615613 0.061684605
0.057375688 0.013136862 0.045291554 0.019364199 0.062150665 0.019708283 0.08076137 0.023319675
-0.017806996 0.113248944 0.029189361 0.057211865 -0.16512695 0.038159758 0.033815116 0.045785177
00000000: eea0 793d 3aec 963c 8a09 8b3d aa62 113d
00000010: b4bf 673d 390d 1fbc 42f4 243d 4687 8d3d
00000020: 542f 9d3d 1a3c 473d d5c9 d23c 16e7 93bb
00000030: 2f15 103d 9fb1 8e3d 9bf7 9f3d c4fc 703d
00000040: 024a 833d 8929 013c 91b8 423d 8754 863d
00000050: 45ac fb3b 3d69 3f3d 1fde d93d 6762 3a3d
00000060: b7c4 cb3d 55ef 5e3d 06e8 9f3c 79e8 403d
00000070: 4faa 313d 2968 eb3d b67a de3c 41db 1e3d
00000080: 6b5d 263d 4f00 993d 49ad 383d 1659 1f3d
00000090: 55c7 0f3d 5d35 3f3d 02e6 a93d 6978 413d
000000a0: ff93 c0bb 92c4 9ebc f39b 623d 1aa2 363d
000000b0: c4fd 243d db99 653d 56b3 833d a907 803d
000000c0: c45a 3e3d 45a3 c63d 5b68 2c3c 630f ae3d
000000d0: 7c31 ad3b e7c3 213e 7ef0 2e3d a344 353d
000000e0: 688d 3a3d 67e1 183e 3163 0a3d 6d83 073d
000000f0: 500a 923d f41a 853d 1ed8 8b3d d604 233d
00000100: a974 da3d b191 063d eb38 323d 1089 903d
00000110: f92e 243d acaa 693d 09ec 963d db7a 013d
00000120: b1cf b63c fd6e 813d f71b 6a3c af60 293d
00000130: 5190 c03c 8deb 853c f32d 1e3e 1563 0c3d
00000140: 25e9 0b3d 2042 0a3e bfbe 0a3d d51e 473d
00000150: c830 893d 8a0a 103d 1d15 813d 6daf a53c
00000160: 749f 143d 2a27 2d3d 7c5c 823d 0c5f 053d
00000170: 102f 073d ce95 713d 0613 243d de1a 033d
00000180: af07 083d 7c63 a43d 1bb0 0f3d 63b6 6b3d
00000190: bb91 f53c 9d36 523d 3e91 5c3d b7e2 7a3d
000001a0: e6fb 183d 2d91 303d baac 513d cd8f 193d
000001b0: 5165 373d c341 053d 46ca 1f3d e07f 8c3d
000001c0: 0dad 5f3d 8355 273d d4c1 413c 8beb 283d
000001d0: 1d48 1b3d ca5b 0e3d 70b6 3d3d 9443 e83c
000001e0: 2f60 0fba 828d d63c 8534 403d 6047 2a3d
000001f0: 0ca2 0a3e afe8 f43c 826a 433d 0078 213d
00000200: 7d93 2b3d 80d2 1e3e 9214 883d 4454 7f3c
00000210: 1e71 a03d e52b 533d 71f4 813b e1f2 103e
00000220: 66cc a3bc 6c16 fb3c 33f8 083d f1df e93d
00000230: da97 2d3d 1a2a 6d3c 8d1f f23c ad35 b93c
00000240: 6f99 1ebc 8895 1e3d 03f4 8d3d 921c 5b3d
00000250: 7bc0 64bc ba16 1c3d 85c3 ac3c fd64 2b3d
00000260: eb7f 4e3e 3333 623d 3067 9a3d e3ce 503d
00000270: e524 8f3d 7b83 3c3d a8eb f93c 9fe2 883d
00000280: da02 383d f53f 833d ae54 da3d 48b3 023d
00000290: 8ad8 a83c f190 9c3d f7ae a7ba 09a7 453d
000002a0: a9da de3c 01ec a93d fd4a 343d 603b d33c
000002b0: 97ca 9e3d 9b4f 093e 7eee 933d 727e 473d
000002c0: 96d6 573d d0a7 a13d 4338 44bc 9bc4 dd3d
000002d0: f759 0a3d e986 96bd ccb1 1f3c dab2 573d
000002e0: d86a 103d e388 21be 56d9 7abd 0075 10be
000002f0: 7698 4a3d 987b 043c 3a5b 15be 8b99 2e3d
00000300: 3541 10bb b05e 723d f13e 4c3d e606 d03d
00000310: 2f73 f13c 0bcd 573d 1ad4 633d 5a05 383c
00000320: a8d7 a73d e88f 3b3d 28d8 493d d662 923c
00000330: 7678 943d 716e fe3d 0769 d03d 0985 f23c
00000340: 46f3 8a3d 221d edbd b43e be3d 4fd3 7f3b
00000350: a83a 593d a524 f43d 40cf 0e3d 447f 823d
00000360: e160 e83d e170 5c3d ac1d a83c a163 c2bd
00000370: 7063 ff3c 9ab9 1cbd d9b2 d73d e72c 9f3b
00000380: 5f8c 3c3d d6fc 563d 8fb7 773c 640b cf3d
00000390: d6ef 813d 1543 5e3d 4e22 6f3d 47a5 a2bc
000003a0: 5876 543d c044 613d eac6 2a3d 72ab 313d
000003b0: f7f8 a8bd 2ec4 e53d 27dd 483e ffa8 7c3d
000003c0: c502 6b3d fe3b 573c a383 393d aba1 9e3c
000003d0: b291 7e3d 4473 a13c 3866 a53d e708 bf3c
000003e0: fadf 91bc 10ef e73d 871e ef3c fd56 6a3d
000003f0: 0a17 29be 684d 1c3d b881 0a3d 3d89 3b3d
